diff --git a/shardy/dialect/sdy/transforms/export/export_pipeline.cc b/shardy/dialect/sdy/transforms/export/export_pipeline.cc
index 1801877..0e8233d 100644
--- a/shardy/dialect/sdy/transforms/export/export_pipeline.cc
+++ b/shardy/dialect/sdy/transforms/export/export_pipeline.cc
@@ -40,7 +40,12 @@ void runShardyPartitioner(OpPassManager& pm, int& dumpIndex,
                           const ExportOptions& options) {
   InsertExplicitReshardsPassOptions passOptions;
   passOptions.enableFullVersion = options.enableInsertExplicitCollectives;
+  passOptions.avoidReshardsOnCalls = options.avoidReshardsOnCalls;
   pm.addNestedPass<func::FuncOp>(createInsertExplicitReshardsPass(passOptions));
+  pm.addPass(createUnflattenCallGraphPass(
+      UnflattenCallGraphPassOptions{options.dedupFunctionsFully}));
+  // Keep a SymbolDCE after UnflattenCallGraph.
+  pm.addPass(createSymbolDCEPass());
   if (options.enableInsertExplicitCollectives) {
     pm.addPass(mlir::sdy::createSaveModuleOpPass(
         options.dumpDirectory, "after_explicit_reshards", dumpIndex++));
@@ -84,10 +89,6 @@ void addExportPipeline(OpPassManager& pm, int& dumpIndex,
     pm.addPass(createUpdateNonDivisibleInputOutputShardingsPass());
     pm.addPass(createRemoveSubAxesInInputOutputShardingsPass());
   }
-  pm.addPass(createUnflattenCallGraphPass(
-      UnflattenCallGraphPassOptions{options.dedupFunctionsFully}));
-  // Keep a SymbolDCE after UnflattenCallGraph.
-  pm.addPass(createSymbolDCEPass());
   pm.addPass(createCloseShardingsPass());
 
   // We dump the module after propagation at this point, since the export passes
@@ -100,6 +101,11 @@ void addExportPipeline(OpPassManager& pm, int& dumpIndex,
   // reshards/collectives.
   if (!options.avoidExportForPartitioning) {
     runShardyPartitioner(pm, dumpIndex, options);
+  } else {
+    pm.addPass(createUnflattenCallGraphPass(
+        UnflattenCallGraphPassOptions{options.dedupFunctionsFully}));
+    // Keep a SymbolDCE after UnflattenCallGraph.
+    pm.addPass(createSymbolDCEPass());
   }
   if (options.dumpPropagationEdges || options.dumpShardingOrigins) {
     pm.addPass(createRemovePropagationDebugInfoPass());
diff --git a/shardy/dialect/sdy/transforms/export/insert_explicit_reshards.cc b/shardy/dialect/sdy/transforms/export/insert_explicit_reshards.cc
index f329d9e..5241691 100644
--- a/shardy/dialect/sdy/transforms/export/insert_explicit_reshards.cc
+++ b/shardy/dialect/sdy/transforms/export/insert_explicit_reshards.cc
@@ -495,8 +495,10 @@ struct InsertExplicitReshardsPass
       }
 
       if (CallOp callOp = dyn_cast<CallOp>(op)) {
+        if (!avoidReshardsOnCalls) {
           insertExplicitReshardsOnCallOp(callOp, rewriter, symbolTable,
                                          onFullVersion);
+        }
         return;
       }
 
diff --git a/shardy/dialect/sdy/transforms/export/passes.td b/shardy/dialect/sdy/transforms/export/passes.td
index 403cad1..9578a67 100644
--- a/shardy/dialect/sdy/transforms/export/passes.td
+++ b/shardy/dialect/sdy/transforms/export/passes.td
@@ -123,6 +123,10 @@ def InsertExplicitReshardsPass : Pass<"sdy-insert-explicit-reshards", "func::Fun
       Option<"enableFullVersion", "enable-full-version",
             "bool", /*default=*/"false",
             "Enable full version.">,
+      Option<"avoidReshardsOnCalls",
+            "avoid-reshards-on-calls",
+            "bool", /*default=*/"false",
+            "Avoid explicit reshards/collectives on calls.">
     ];
 }
 
diff --git a/shardy/dialect/sdy/transforms/export/test/call_ops_avoid_reshards_on_calls_true.mlir b/shardy/dialect/sdy/transforms/export/test/call_ops_avoid_reshards_on_calls_true.mlir
new file mode 100644
index 0000000..2db0115
--- /dev/null
+++ b/shardy/dialect/sdy/transforms/export/test/call_ops_avoid_reshards_on_calls_true.mlir
@@ -0,0 +1,126 @@
+// RUN: sdy_opt %s -split-input-file -sdy-insert-explicit-reshards='enable-full-version=true avoid-reshards-on-calls=true' | FileCheck %s
+
+sdy.mesh @mesh = <["x"=2, "y"=2, "z"=4]>
+
+// CHECK-LABEL: func @call
+func.func @call(%arg0: tensor<210xf32> {sdy.sharding = #sdy.sharding<@mesh, [{"x"}]>}) -> (tensor<210xf32> {sdy.sharding = #sdy.sharding<@mesh, [{"z"}]>}) {
+  // CHECK-NEXT: %[[CALL:.*]] = call @foo(%arg0)
+  // CHECK-NEXT: %[[NEGATE:.*]] = stablehlo.negate %[[CALL]]
+  // CHECK-NEXT: return %[[NEGATE]]
+  %0 = call @foo(%arg0) {sdy.sharding = #sdy.sharding_per_value<[<@mesh, [{"z"}]>]>} : (tensor<210xf32>) -> (tensor<210xf32>)
+  %1 = stablehlo.negate %0 {sdy.sharding = #sdy.sharding_per_value<[<@mesh, [{"z"}]>]>} : tensor<210xf32>
+  return %1 : tensor<210xf32>
+}
+
+// CHECK-LABEL: func private @foo
+func.func private @foo(%arg0: tensor<210xf32> {sdy.sharding = #sdy.sharding<@mesh, [{"y"}]>}) -> (tensor<210xf32> {sdy.sharding = #sdy.sharding<@mesh, [{"z"}]>}) {
+  // CHECK-NEXT: %[[ABS:.*]] = stablehlo.abs %arg0 {sdy.sharding = #sdy.sharding_per_value<[<@mesh, [{"y"}]>]>}
+  // CHECK-NEXT: %[[RESHARD:.*]] = sdy.reshard %[[ABS]] <@mesh, [{"z"}]>
+  // CHECK-NEXT: return %[[RESHARD]]
+  %0 = stablehlo.abs %arg0 {sdy.sharding = #sdy.sharding_per_value<[<@mesh, [{"y"}]>]>} : tensor<210xf32>
+  return %0 : tensor<210xf32>
+}
+
+// -----
+sdy.mesh @mesh = <["x"=4, "y"=2]>
+
+// CHECK-LABEL: func @call_empty_block
+func.func @call_empty_block(%arg0: tensor<210xf32> {sdy.sharding = #sdy.sharding<@mesh, [{"x"}]>}) -> (tensor<210xf32> {sdy.sharding = #sdy.sharding<@mesh, [{"y"}]>}) {
+  // CHECK-NEXT: %[[CALL:.*]] = call @foo(%arg0) {sdy.sharding = #sdy.sharding_per_value<[<@mesh, [{"y"}]>]>}
+  // CHECK-NEXT: %[[NEGATE:.*]] = stablehlo.negate %0 {sdy.sharding = #sdy.sharding_per_value<[<@mesh, [{"y"}]>]>}
+  %0 = call @foo(%arg0) {sdy.sharding = #sdy.sharding_per_value<[<@mesh, [{"y"}]>]>} : (tensor<210xf32>) -> (tensor<210xf32>)
+  %1 = stablehlo.negate %0 {sdy.sharding = #sdy.sharding_per_value<[<@mesh, [{"y"}]>]>} : tensor<210xf32>
+  return %1 : tensor<210xf32>
+}
+
+// CHECK-LABEL: func private @foo
+func.func private @foo(%arg0: tensor<210xf32> {sdy.sharding = #sdy.sharding<@mesh, [{"x"}]>}) -> (tensor<210xf32> {sdy.sharding = #sdy.sharding<@mesh, [{"y"}]>}) {
+  // CHECK-NEXT: %[[RESHARD:.*]] = sdy.reshard %arg0 <@mesh, [{"y"}]>
+  // CHECK-NEXT: return %[[RESHARD]]
+  return %arg0 : tensor<210xf32>
+}
+
+// -----
+sdy.mesh @mesh = <["a"=2, "b"=2, "c"=2]>
+
+// CHECK-LABEL: func @call_with_shardings
+func.func @call_with_shardings(%arg0: tensor<8x2xi32>, %arg1: tensor<4x2xi32>) -> tensor<12x2xi32> {
+  // CHECK-NEXT: %[[CALL:.*]]:2 = call @foo(%arg0, %arg1) {sdy.sharding = #sdy.sharding_per_value<[<@mesh, [{"a"}, {}]>, <@mesh, [{}, {}]>]>}
+  // CHECK-NEXT: %[[RESHARD1:.*]] = sdy.reshard %[[CALL]]#0 <@mesh, [{}, {"a"}]>
+  // CHECK-NEXT: %[[RESHARD2:.*]] = sdy.reshard %[[CALL]]#1 <@mesh, [{}, {"a"}]>
+  // CHECK-NEXT: %[[CONCAT:.*]] = stablehlo.concatenate %[[RESHARD1]], %[[RESHARD2]], dim = 0 {sdy.sharding = #sdy.sharding_per_value<[<@mesh, [{}, {"a"}]>]>}
+  // CHECK-NEXT: %[[RESHARD3:.*]] = sdy.reshard %[[CONCAT]] <@mesh, [{}, {}]>
+  %0:2 = call @foo(%arg0, %arg1) {sdy.sharding = #sdy.sharding_per_value<[<@mesh, [{"a"}, {}]>, <@mesh, [{}, {}]>]>} : (tensor<8x2xi32>, tensor<4x2xi32>) -> (tensor<8x2xi32>, tensor<4x2xi32>)
+  %1 = stablehlo.concatenate %0#0, %0#1, dim = 0 {sdy.sharding = #sdy.sharding_per_value<[<@mesh, [{}, {"a"}]>]>} : (tensor<8x2xi32>, tensor<4x2xi32>) -> tensor<12x2xi32>
+  return %1 : tensor<12x2xi32>
+}
+
+// CHECK-LABEL: func private @foo
+func.func private @foo(%arg0: tensor<8x2xi32> {sdy.sharding = #sdy.sharding<@mesh, [{"a"}, {}]>}, %arg1: tensor<4x2xi32> {sdy.sharding = #sdy.sharding<@mesh, [{}, {}]>})
+  -> (tensor<8x2xi32> {sdy.sharding = #sdy.sharding<@mesh, [{"a"}, {}]>}, tensor<4x2xi32> {sdy.sharding = #sdy.sharding<@mesh, [{}, {}]>}) {
+  // CHECK-NEXT: %[[ABS:.*]] = stablehlo.abs %arg0 {sdy.sharding = #sdy.sharding_per_value<[<@mesh, [{"a"}, {}]>]>}
+  // CHECK-NEXT: %[[RESHARD0:.*]] = sdy.reshard %[[ABS]] <@mesh, [{}, {"a"}]>
+  // CHECK-NEXT: %[[RESHARD1:.*]] = sdy.reshard %[[RESHARD0]] <@mesh, [{"a"}, {}]>
+  // CHECK-NEXT: return %[[RESHARD1]], %arg1
+  %0 = stablehlo.abs %arg0 {sdy.sharding = #sdy.sharding_per_value<[<@mesh, [{}, {"a"}]>]>} : tensor<8x2xi32>
+  return %0, %arg1 : tensor<8x2xi32>, tensor<4x2xi32>
+}
+
+// -----
+sdy.mesh @mesh = <["x"=2, "y"=2, "z"=4]>
+
+// CHECK-LABEL: func @one_argument_to_multiple_calls(
+func.func @one_argument_to_multiple_calls(%arg0: tensor<210xf32> {sdy.sharding = #sdy.sharding<@mesh, [{"x"}]>}) -> (tensor<210xf32> {sdy.sharding = #sdy.sharding<@mesh, [{"z"}]>}) {
+  // CHECK-NEXT: %[[CALL0:.*]] = call @foo(%arg0) {sdy.sharding = #sdy.sharding_per_value<[<@mesh, [{"y"}]>]>}
+  // CHECK-NEXT: %[[CALL1:.*]] = call @bar(%arg0) {sdy.sharding = #sdy.sharding_per_value<[<@mesh, [{"z"}]>]>}
+  // CHECK-NEXT: %[[RESHARD:.*]] = sdy.reshard %[[CALL0]] <@mesh, [{"z"}]>
+  // CHECK-NEXT: %[[ADD:.*]] = stablehlo.add %[[RESHARD]], %[[CALL1]] {sdy.sharding = #sdy.sharding_per_value<[<@mesh, [{"z"}]>]>}
+  // CHECK-NEXT: return %[[ADD]]
+  %0 = call @foo(%arg0) {sdy.sharding = #sdy.sharding_per_value<[<@mesh, [{"y"}]>]>} : (tensor<210xf32>) -> (tensor<210xf32>)
+  %1 = call @bar(%arg0) {sdy.sharding = #sdy.sharding_per_value<[<@mesh, [{"z"}]>]>} : (tensor<210xf32>) -> (tensor<210xf32>)
+  %3 = stablehlo.add %0, %1 {sdy.sharding = #sdy.sharding_per_value<[<@mesh, [{"z"}]>]>} : tensor<210xf32>
+  return %3 : tensor<210xf32>
+}
+
+// CHECK-LABEL: func private @foo
+func.func private @foo(%arg0: tensor<210xf32> {sdy.sharding = #sdy.sharding<@mesh, [{"y"}]>}) -> (tensor<210xf32> {sdy.sharding = #sdy.sharding<@mesh, [{"y"}]>}) {
+  // CHECK-NEXT: %[[ABS:.*]] = stablehlo.abs %arg0
+  // CHECK-NEXT: return %[[ABS]]
+  %0 = stablehlo.abs %arg0 {sdy.sharding = #sdy.sharding_per_value<[<@mesh, [{"y"}]>]>} : tensor<210xf32>
+  return %0 : tensor<210xf32>
+}
+
+// CHECK-LABEL: func private @bar
+func.func private @bar(%arg0: tensor<210xf32> {sdy.sharding = #sdy.sharding<@mesh, [{"z"}]>}) -> (tensor<210xf32> {sdy.sharding = #sdy.sharding<@mesh, [{"z"}]>}) {
+  // CHECK-NEXT: %[[ABS:.*]] = stablehlo.abs %arg0
+  // CHECK-NEXT: return %[[ABS]]
+  %0 = stablehlo.abs %arg0 {sdy.sharding = #sdy.sharding_per_value<[<@mesh, [{"z"}]>]>} : tensor<210xf32>
+  return %0 : tensor<210xf32>
+}
+
+// -----
+sdy.mesh @mesh = <["x"=2, "y"=2, "z"=4]>
+
+
+// CHECK-LABEL: func @different_arguments_to_multiple_calls_with_same_input_output_shardings
+func.func @different_arguments_to_multiple_calls_with_same_input_output_shardings(%arg0: tensor<210xf32> {sdy.sharding = #sdy.sharding<@mesh, [{"x"}]>}) -> (tensor<210xf32> {sdy.sharding = #sdy.sharding<@mesh, [{"y"}]>}) {
+  // CHECK-NEXT: %[[CALL0:.*]] = call @foo(%arg0) {sdy.sharding = #sdy.sharding_per_value<[<@mesh, [{"y"}]>]>}
+  // CHECK-NEXT: %[[NEGATE:.*]] = stablehlo.negate %arg0 {sdy.sharding = #sdy.sharding_per_value<[<@mesh, [{"x"}]>]>}
+  // CHECK-NEXT: %[[RESHARD:.*]] = sdy.reshard %[[NEGATE]] <@mesh, [{"y"}]>
+  // CHECK-NEXT: %[[CALL1:.*]] = call @foo(%[[RESHARD]]) {sdy.sharding = #sdy.sharding_per_value<[<@mesh, [{"y"}]>]>}
+  // CHECK-NEXT: %[[ADD:.*]] = stablehlo.add %[[CALL0]], %[[CALL1]] {sdy.sharding = #sdy.sharding_per_value<[<@mesh, [{"y"}]>]>}
+  // CHECK-NEXT: return %[[ADD]]
+  %0 = call @foo(%arg0) {sdy.sharding = #sdy.sharding_per_value<[<@mesh, [{"y"}]>]>} : (tensor<210xf32>) -> (tensor<210xf32>)
+  %1 = stablehlo.negate %arg0 {sdy.sharding = #sdy.sharding_per_value<[<@mesh, [{"y"}]>]>} : tensor<210xf32>
+  %2 = call @foo(%1) {sdy.sharding = #sdy.sharding_per_value<[<@mesh, [{"y"}]>]>} : (tensor<210xf32>) -> (tensor<210xf32>)
+  %4 = stablehlo.add %0, %2 {sdy.sharding = #sdy.sharding_per_value<[<@mesh, [{"y"}]>]>} : tensor<210xf32>
+  return %4 : tensor<210xf32>
+}
+
+// CHECK-LABEL: func private @foo
+func.func private @foo(%arg0: tensor<210xf32> {sdy.sharding = #sdy.sharding<@mesh, [{"y"}]>}) -> (tensor<210xf32> {sdy.sharding = #sdy.sharding<@mesh, [{"y"}]>}) {
+  // CHECK-NEXT: %[[ABS:.*]] = stablehlo.abs %arg0
+  // CHECK-NEXT: return %[[ABS]]
+  %3 = stablehlo.abs %arg0 {sdy.sharding = #sdy.sharding_per_value<[<@mesh, [{"y"}]>]>} : tensor<210xf32>
+  return %3 : tensor<210xf32>
+}
diff --git a/shardy/dialect/sdy/transforms/export/test/unflatten_call_graph.mlir b/shardy/dialect/sdy/transforms/export/test/unflatten_call_graph.mlir
index ce7717c..0befeb1 100644
--- a/shardy/dialect/sdy/transforms/export/test/unflatten_call_graph.mlir
+++ b/shardy/dialect/sdy/transforms/export/test/unflatten_call_graph.mlir
@@ -12,7 +12,8 @@ sdy.mesh @mesh = <["x"=2, "y"=2]>
 // CHECK-SAME: %arg0: tensor<8x2xi32> {sdy.sharding = #sdy.sharding<@mesh, [{"y"}, {"x"}]>})
 // CHECK-SAME: -> (tensor<8x2xi32> {sdy.sharding = #sdy.sharding<@mesh, [{"x"}, {"y"}]>}) {
 func.func @ignore_operand_shardings(%arg0: tensor<8x2xi32> {sdy.sharding = #sdy.sharding<@mesh, [{"y"}, {"x"}]>}) -> (tensor<8x2xi32> {sdy.sharding = #sdy.sharding<@mesh, [{"x"}, {"y"}]>}) {
-  // CHECK-NEXT: %[[CALL:.*]] = call @foo(%arg0)
+  // CHECK-NEXT: %[[COPY:.*]] = sdy.reshard %arg0 <@mesh, [{}, {"y"}]> : tensor<8x2xi32>
+  // CHECK-NEXT: %[[CALL:.*]] = call @foo(%[[COPY]])
   // CHECK-SAME:   {mhlo.frontend_attributes = {backend_config = "{\22flag_configs\22:[],\22scoped_memory_configs\22:[],\22device_type\22:\22DEVICE_TYPE_HOST\22,\22used_scoped_memory_configs\22:[]}"},
   // CHECK-SAME:    random_attr = "random_value",
   // CHECK-SAME:    sdy.sharding = #sdy.sharding_per_value<[<@mesh, [{"x"}, {}]>]>}
@@ -381,13 +382,14 @@ sdy.mesh @mesh = <["x"=2, "y"=2]>
 // CHECK-LABEL: func @calls_different_funcs_with_manual_axes_one_without(
 // CHECK-SAME:      %arg0: tensor<8xf32> {sdy.sharding = #sdy.sharding<@mesh, [{"x", "y"}]>}
 // CHECK-SAME:      -> (tensor<8xf32> {sdy.sharding = #sdy.sharding<@mesh, [{"x", "y"}]>}) {
-// CHECK:       %[[MANUAL_RET:.*]] = sdy.manual_computation(%arg0) in_shardings=[<@mesh, [{"x", "y"}]>] out_shardings=[<@mesh, [{"x", "y"}]>] manual_axes={"x"} (%arg1: tensor<4xf32>) {
-// CHECK-NEXT:    %[[CALL1:.*]] = func.call @foo(%arg1) {sdy.sharding = #sdy.sharding_per_value<[<@mesh, [{"y"}]>]>} : (tensor<4xf32>) -> tensor<4xf32>
-// CHECK-NEXT:    %[[CALL2:.*]] = func.call @foo(%[[CALL1]]) {sdy.sharding = #sdy.sharding_per_value<[<@mesh, [{"y"}]>]>} : (tensor<4xf32>) -> tensor<4xf32>
-// CHECK-NEXT:    sdy.return %[[CALL2]] : tensor<4xf32>
+// CHECK:       %0 = sdy.manual_computation(%arg0) in_shardings=[<@mesh, [{"x", "y"}]>] out_shardings=[<@mesh, [{"x", "y"}]>] manual_axes={"x"} (%arg1: tensor<4xf32>) {
+// CHECK-NEXT:    %3 = func.call @foo(%arg1) {sdy.sharding = #sdy.sharding_per_value<[<@mesh, [{"y"}]>]>} : (tensor<4xf32>) -> tensor<4xf32>
+// CHECK-NEXT:    %4 = func.call @foo(%3) {sdy.sharding = #sdy.sharding_per_value<[<@mesh, [{"y"}]>]>} : (tensor<4xf32>) -> tensor<4xf32>
+// CHECK-NEXT:    sdy.return %4 : tensor<4xf32>
 // CHECK-NEXT:  } : (tensor<8xf32>) -> tensor<8xf32>
-// CHECK-NEXT:  %[[BAR_RET:.*]] = call @bar(%[[MANUAL_RET]]) {sdy.sharding = #sdy.sharding_per_value<[<@mesh, [{"y"}]>]>} : (tensor<8xf32>) -> tensor<8xf32>
-// CHECK-NEXT:  return %[[BAR_RET]] : tensor<8xf32>
+// CHECK-NEXT:  %1 = sdy.reshard %0 <@mesh, [{"y"}]> : tensor<8xf32>
+// CHECK-NEXT:  %2 = call @bar(%1) {sdy.sharding = #sdy.sharding_per_value<[<@mesh, [{"y"}]>]>} : (tensor<8xf32>) -> tensor<8xf32>
+// CHECK-NEXT:  return %2 : tensor<8xf32>
 func.func @calls_different_funcs_with_manual_axes_one_without(%arg0: tensor<8xf32> {sdy.sharding = #sdy.sharding<@mesh, [{"x", "y"}]>}) -> (tensor<8xf32> {sdy.sharding = #sdy.sharding<@mesh, [{"x", "y"}]>}) {
   %0 = sdy.manual_computation(%arg0) in_shardings=[<@mesh, [{"x", "y"}]>] out_shardings=[<@mesh, [{"x", "y"}]>] manual_axes={"x"} (%arg1: tensor<4xf32>) {
     %2 = func.call @foo(%arg1) {sdy.sharding = #sdy.sharding_per_value<[<@mesh, [{"y"}]>]>} : (tensor<4xf32>) -> tensor<4xf32>
@@ -429,13 +431,14 @@ sdy.mesh @mesh = <["x"=2, "y"=2]>
 // CHECK-LABEL: func @calls_same_funcs_with_manual_axes_one_without(
 // CHECK-SAME:      %arg0: tensor<8xf32> {sdy.sharding = #sdy.sharding<@mesh, [{"x", "y"}]>}
 // CHECK-SAME:      -> (tensor<8xf32> {sdy.sharding = #sdy.sharding<@mesh, [{"x", "y"}]>}) {
-// CHECK:       %[[MANUAL_RET:.*]] = sdy.manual_computation(%arg0) in_shardings=[<@mesh, [{"x", "y"}]>] out_shardings=[<@mesh, [{"x", "y"}]>] manual_axes={"x"} (%arg1: tensor<4xf32>) {
-// CHECK-NEXT:    %[[CALL1:.*]] = func.call @foo(%arg1) {sdy.sharding = #sdy.sharding_per_value<[<@mesh, [{"y"}]>]>} : (tensor<4xf32>) -> tensor<4xf32>
-// CHECK-NEXT:    %[[CALL2:.*]] = func.call @foo(%[[CALL1]]) {sdy.sharding = #sdy.sharding_per_value<[<@mesh, [{"y"}]>]>} : (tensor<4xf32>) -> tensor<4xf32>
-// CHECK-NEXT:    sdy.return %[[CALL2]] : tensor<4xf32>
+// CHECK:       %0 = sdy.manual_computation(%arg0) in_shardings=[<@mesh, [{"x", "y"}]>] out_shardings=[<@mesh, [{"x", "y"}]>] manual_axes={"x"} (%arg1: tensor<4xf32>) {
+// CHECK-NEXT:    %3 = func.call @foo(%arg1) {sdy.sharding = #sdy.sharding_per_value<[<@mesh, [{"y"}]>]>} : (tensor<4xf32>) -> tensor<4xf32>
+// CHECK-NEXT:    %4 = func.call @foo(%3) {sdy.sharding = #sdy.sharding_per_value<[<@mesh, [{"y"}]>]>} : (tensor<4xf32>) -> tensor<4xf32>
+// CHECK-NEXT:    sdy.return %4 : tensor<4xf32>
 // CHECK-NEXT:  } : (tensor<8xf32>) -> tensor<8xf32>
-// CHECK-NEXT:  %[[BAR_RET:.*]] = call @bar(%[[MANUAL_RET]]) {sdy.sharding = #sdy.sharding_per_value<[<@mesh, [{"y"}]>]>} : (tensor<8xf32>) -> tensor<8xf32>
-// CHECK-NEXT:  return %[[BAR_RET]] : tensor<8xf32>
+// CHECK-NEXT:  %1 = sdy.reshard %0 <@mesh, [{"y"}]> : tensor<8xf32>
+// CHECK-NEXT:  %2 = call @bar(%1) {sdy.sharding = #sdy.sharding_per_value<[<@mesh, [{"y"}]>]>} : (tensor<8xf32>) -> tensor<8xf32>
+// CHECK-NEXT:  return %2 : tensor<8xf32>
 func.func @calls_same_funcs_with_manual_axes_one_without(%arg0: tensor<8xf32> {sdy.sharding = #sdy.sharding<@mesh, [{"x", "y"}]>}) -> (tensor<8xf32> {sdy.sharding = #sdy.sharding<@mesh, [{"x", "y"}]>}) {
   %0 = sdy.manual_computation(%arg0) in_shardings=[<@mesh, [{"x", "y"}]>] out_shardings=[<@mesh, [{"x", "y"}]>] manual_axes={"x"} (%arg1: tensor<4xf32>) {
     %2 = func.call @foo(%arg1) {sdy.sharding = #sdy.sharding_per_value<[<@mesh, [{"y"}]>]>} : (tensor<4xf32>) -> tensor<4xf32>
@@ -477,16 +480,17 @@ sdy.mesh @mesh = <["x"=2, "y"=2]>
 // CHECK-LABEL: func @calls_same_funcs_without_manual_axes_one_inside_manual_computation(
 // CHECK-SAME:      %arg0: tensor<8xf32> {sdy.sharding = #sdy.sharding<@mesh, [{"y"}]>}
 // CHECK-SAME:      -> (tensor<8xf32> {sdy.sharding = #sdy.sharding<@mesh, [{"y"}]>}) {
-// CHECK:       %[[MANUAL_RET1:.*]] = sdy.manual_computation(%arg0) in_shardings=[<@mesh, [{"y"}]>] out_shardings=[<@mesh, [{"y"}]>] manual_axes={} (%arg1: tensor<8xf32>) {
-// CHECK-NEXT:    %[[CALL1:.*]] = func.call @foo(%arg1) {sdy.sharding = #sdy.sharding_per_value<[<@mesh, [{"y"}]>]>} : (tensor<8xf32>) -> tensor<8xf32>
-// CHECK-NEXT:    sdy.return %[[CALL1]] : tensor<8xf32>
+// CHECK:       %0 = sdy.manual_computation(%arg0) in_shardings=[<@mesh, [{"y"}]>] out_shardings=[<@mesh, [{"y"}]>] manual_axes={} (%arg1: tensor<8xf32>) {
+// CHECK-NEXT:    %4 = func.call @foo(%arg1) {sdy.sharding = #sdy.sharding_per_value<[<@mesh, [{"y"}]>]>} : (tensor<8xf32>) -> tensor<8xf32>
+// CHECK-NEXT:    sdy.return %4 : tensor<8xf32>
 // CHECK-NEXT:  } : (tensor<8xf32>) -> tensor<8xf32>
-// CHECK-NEXT:  %[[MANUAL_RET2:.*]] = sdy.manual_computation(%[[MANUAL_RET1]]) in_shardings=[<@mesh, [{"x", "y"}]>] out_shardings=[<@mesh, [{"x", "y"}]>] manual_axes={"x"} (%arg1: tensor<4xf32>) {
-// CHECK-NEXT:    %[[CALL2:.*]] = func.call @bar(%arg1) {sdy.sharding = #sdy.sharding_per_value<[<@mesh, [{"y"}]>]>} : (tensor<4xf32>) -> tensor<4xf32>
-// CHECK-NEXT:    sdy.return %[[CALL2]] : tensor<4xf32>
+// CHECK-NEXT:  %1 = sdy.manual_computation(%0) in_shardings=[<@mesh, [{"x", "y"}]>] out_shardings=[<@mesh, [{"x", "y"}]>] manual_axes={"x"} (%arg1: tensor<4xf32>) {
+// CHECK-NEXT:    %4 = func.call @bar(%arg1) {sdy.sharding = #sdy.sharding_per_value<[<@mesh, [{"y"}]>]>} : (tensor<4xf32>) -> tensor<4xf32>
+// CHECK-NEXT:    sdy.return %4 : tensor<4xf32>
 // CHECK-NEXT:  } : (tensor<8xf32>) -> tensor<8xf32>
-// CHECK-NEXT:  %[[CALL3:.*]] = call @foo(%[[MANUAL_RET2]]) {sdy.sharding = #sdy.sharding_per_value<[<@mesh, [{"y"}]>]>} : (tensor<8xf32>) -> tensor<8xf32>
-// CHECK-NEXT:  return %[[CALL3]] : tensor<8xf32>
+// CHECK-NEXT:  %2 = sdy.reshard %1 <@mesh, [{"y"}]> : tensor<8xf32>
+// CHECK-NEXT:  %3 = call @foo(%2) {sdy.sharding = #sdy.sharding_per_value<[<@mesh, [{"y"}]>]>} : (tensor<8xf32>) -> tensor<8xf32>
+// CHECK-NEXT:  return %3 : tensor<8xf32>
 func.func @calls_same_funcs_without_manual_axes_one_inside_manual_computation(%arg0: tensor<8xf32> {sdy.sharding = #sdy.sharding<@mesh, [{"y"}]>}) -> (tensor<8xf32> {sdy.sharding = #sdy.sharding<@mesh, [{"y"}]>}) {
   %0 = sdy.manual_computation(%arg0) in_shardings=[<@mesh, [{"y"}]>] out_shardings=[<@mesh, [{"y"}]>] manual_axes={} (%arg1: tensor<8xf32>) {
     %3 = func.call @foo(%arg1) {sdy.sharding = #sdy.sharding_per_value<[<@mesh, [{"y"}]>]>} : (tensor<8xf32>) -> tensor<8xf32>
@@ -526,14 +530,16 @@ sdy.mesh @mesh = <["x"=2, "y"=2]>
 // CHECK-SAME:      %arg0: tensor<8xf32> {sdy.sharding = #sdy.sharding<@mesh, [{"x", "y"}]>}
 // CHECK-SAME:      -> (tensor<8xf32> {sdy.sharding = #sdy.sharding<@mesh, [{"x", "y"}]>}) {
 // CHECK:       %0 = sdy.manual_computation(%arg0) in_shardings=[<@mesh, [{"x", "y"}]>] out_shardings=[<@mesh, [{"x", "y"}]>] manual_axes={"x"} (%arg1: tensor<4xf32>) {
-// CHECK-NEXT:    %4 = func.call @bar(%arg1) {sdy.sharding = #sdy.sharding_per_value<[<@mesh, [{"y"}]>]>} : (tensor<4xf32>) -> tensor<4xf32>
-// CHECK-NEXT:    %5 = func.call @bar(%4) {sdy.sharding = #sdy.sharding_per_value<[<@mesh, [{"y"}]>]>} : (tensor<4xf32>) -> tensor<4xf32>
-// CHECK-NEXT:    sdy.return %5 : tensor<4xf32>
+// CHECK-NEXT:    %6 = func.call @bar(%arg1) {sdy.sharding = #sdy.sharding_per_value<[<@mesh, [{"y"}]>]>} : (tensor<4xf32>) -> tensor<4xf32>
+// CHECK-NEXT:    %7 = func.call @bar(%6) {sdy.sharding = #sdy.sharding_per_value<[<@mesh, [{"y"}]>]>} : (tensor<4xf32>) -> tensor<4xf32>
+// CHECK-NEXT:    sdy.return %7 : tensor<4xf32>
 // CHECK-NEXT:  } : (tensor<8xf32>) -> tensor<8xf32>
-// CHECK-NEXT:  %1 = call @foo(%0) {sdy.sharding = #sdy.sharding_per_value<[<@mesh, [{"y"}]>]>} : (tensor<8xf32>) -> tensor<8xf32>
+// CHECK-NEXT:  %1 = sdy.reshard %0 <@mesh, [{"y"}]> : tensor<8xf32>
 // CHECK-NEXT:  %2 = call @foo(%1) {sdy.sharding = #sdy.sharding_per_value<[<@mesh, [{"y"}]>]>} : (tensor<8xf32>) -> tensor<8xf32>
-// CHECK-NEXT:  %3 = call @foo_1(%2) {sdy.sharding = #sdy.sharding_per_value<[<@mesh, [{"x", "y"}]>]>} : (tensor<8xf32>) -> tensor<8xf32>
-// CHECK-NEXT:  return %3 : tensor<8xf32>
+// CHECK-NEXT:  %3 = call @foo(%2) {sdy.sharding = #sdy.sharding_per_value<[<@mesh, [{"y"}]>]>} : (tensor<8xf32>) -> tensor<8xf32>
+// CHECK-NEXT:  %4 = sdy.reshard %3 <@mesh, [{"x", "y"}]> : tensor<8xf32>
+// CHECK-NEXT:  %5 = call @foo_1(%4) {sdy.sharding = #sdy.sharding_per_value<[<@mesh, [{"x", "y"}]>]>} : (tensor<8xf32>) -> tensor<8xf32>
+// CHECK-NEXT:  return %5 : tensor<8xf32>
 func.func @calls_with_manual_axes(%arg0: tensor<8xf32> {sdy.sharding = #sdy.sharding<@mesh, [{"x", "y"}]>}) -> (tensor<8xf32> {sdy.sharding = #sdy.sharding<@mesh, [{"x", "y"}]>}) {
   %0 = sdy.manual_computation(%arg0) in_shardings=[<@mesh, [{"x", "y"}]>] out_shardings=[<@mesh, [{"x", "y"}]>] manual_axes={"x"} (%arg1: tensor<4xf32>) {
     %4 = func.call @bar(%arg1) {sdy.sharding = #sdy.sharding_per_value<[<@mesh, [{"y"}]>]>} : (tensor<4xf32>) -> tensor<4xf32>
@@ -771,19 +777,21 @@ sdy.mesh @mesh = <["x"=2, "y"=2]>
 // CHECK-SAME:      %arg0: tensor<8xf32> {sdy.sharding = #sdy.sharding<@mesh, [{"x", "y"}]>}
 // CHECK-SAME:      -> (tensor<8xf32> {sdy.sharding = #sdy.sharding<@mesh, [{"x", "y"}]>}) {
 // CHECK:       %0 = sdy.manual_computation(%arg0) in_shardings=[<@mesh, [{"x", "y"}]>] out_shardings=[<@mesh, [{"x", "y"}]>] manual_axes={"x"} (%arg1: tensor<4xf32>) {
-// CHECK-NEXT:    %3 = sdy.manual_computation(%arg1) in_shardings=[<@mesh, [{"y"}]>] out_shardings=[<@mesh, [{"y"}]>] manual_axes={"y"} (%arg2: tensor<2xf32>) {
-// CHECK-NEXT:      %5 = func.call @foo(%arg2) {sdy.sharding = #sdy.sharding_per_value<[<@mesh, [{}]>]>} : (tensor<2xf32>) -> tensor<2xf32>
-// CHECK-NEXT:      sdy.return %5 : tensor<2xf32>
-// CHECK-NEXT:    } : (tensor<4xf32>) -> tensor<4xf32>
-// CHECK-NEXT:    %4 = func.call @bar(%3) {sdy.sharding = #sdy.sharding_per_value<[<@mesh, [{}]>]>} : (tensor<4xf32>) -> tensor<4xf32>
-// CHECK-NEXT:    sdy.return %4 : tensor<4xf32>
-// CHECK-NEXT:  } : (tensor<8xf32>) -> tensor<8xf32>
-// CHECK-NEXT:  %1 = sdy.manual_computation(%0) in_shardings=[<@mesh, [{"x", "y"}]>] out_shardings=[<@mesh, [{"x", "y"}]>] manual_axes={"x", "y"} (%arg1: tensor<2xf32>) {
-// CHECK-NEXT:    %3 = func.call @foo(%arg1) {sdy.sharding = #sdy.sharding_per_value<[<@mesh, [{}]>]>} : (tensor<2xf32>) -> tensor<2xf32>
-// CHECK-NEXT:    sdy.return %3 : tensor<2xf32>
-// CHECK-NEXT:  } : (tensor<8xf32>) -> tensor<8xf32>
-// CHECK-NEXT:  %2 = call @baz(%1) {sdy.sharding = #sdy.sharding_per_value<[<@mesh, [{"x"}]>]>} : (tensor<8xf32>) -> tensor<8xf32>
-// CHECK-NEXT:  return %2 : tensor<8xf32>
+// CHECK-NEXT:    %4 = sdy.manual_computation(%arg1) in_shardings=[<@mesh, [{"y"}]>] out_shardings=[<@mesh, [{"y"}]>] manual_axes={"y"} (%arg2: tensor<2xf32>) {
+// CHECK-NEXT:      %7 = func.call @foo(%arg2) {sdy.sharding = #sdy.sharding_per_value<[<@mesh, [{}]>]>} : (tensor<2xf32>) -> tensor<2xf32>
+// CHECK-NEXT:        sdy.return %7 : tensor<2xf32>
+// CHECK-NEXT:      } : (tensor<4xf32>) -> tensor<4xf32>
+// CHECK-NEXT:      %5 = sdy.reshard %4 <@mesh, [{}]> : tensor<4xf32>
+// CHECK-NEXT:      %6 = func.call @bar(%5) {sdy.sharding = #sdy.sharding_per_value<[<@mesh, [{}]>]>} : (tensor<4xf32>) -> tensor<4xf32>
+// CHECK-NEXT:      sdy.return %6 : tensor<4xf32>
+// CHECK-NEXT:    } : (tensor<8xf32>) -> tensor<8xf32>
+// CHECK-NEXT:    %1 = sdy.manual_computation(%0) in_shardings=[<@mesh, [{"x", "y"}]>] out_shardings=[<@mesh, [{"x", "y"}]>] manual_axes={"x", "y"} (%arg1: tensor<2xf32>) {
+// CHECK-NEXT:      %4 = func.call @foo(%arg1) {sdy.sharding = #sdy.sharding_per_value<[<@mesh, [{}]>]>} : (tensor<2xf32>) -> tensor<2xf32>
+// CHECK-NEXT:      sdy.return %4 : tensor<2xf32>
+// CHECK-NEXT:    } : (tensor<8xf32>) -> tensor<8xf32>
+// CHECK-NEXT:    %2 = sdy.reshard %1 <@mesh, [{"x"}]> : tensor<8xf32>
+// CHECK-NEXT:    %3 = call @baz(%2) {sdy.sharding = #sdy.sharding_per_value<[<@mesh, [{"x"}]>]>} : (tensor<8xf32>) -> tensor<8xf32>
+// CHECK-NEXT:    return %3 : tensor<8xf32>
 func.func @nested_manual_computations(%arg0: tensor<8xf32> {sdy.sharding = #sdy.sharding<@mesh, [{"x", "y"}]>}) -> (tensor<8xf32> {sdy.sharding = #sdy.sharding<@mesh, [{"x", "y"}]>}) {
   %0 = sdy.manual_computation(%arg0) in_shardings=[<@mesh, [{"x", "y"}]>] out_shardings=[<@mesh, [{"x", "y"}]>] manual_axes={"x"} (%arg1: tensor<4xf32>) {
     %3 = sdy.manual_computation(%arg1) in_shardings=[<@mesh, [{"y"}]>] out_shardings=[<@mesh, [{"y"}]>] manual_axes={"y"} (%arg2: tensor<2xf32>) {
@@ -847,12 +855,14 @@ sdy.mesh @mesh = <["x"=2, "y"=2]>
 // CHECK-SAME:      %arg0: tensor<8xf32> {sdy.sharding = #sdy.sharding<@mesh, [{"x", "y"}]>}
 // CHECK-SAME:      -> (tensor<8xf32> {sdy.sharding = #sdy.sharding<@mesh, [{"x", "y"}]>}) {
 // CHECK-NEXT:  %0 = sdy.manual_computation(%arg0) in_shardings=[<@mesh, [{"x", "y"}]>] out_shardings=[<@mesh, [{"x", "y"}]>] manual_axes={"x"} (%arg1: tensor<4xf32>) {
-// CHECK-NEXT:    %2 = func.call @foo(%arg1) {sdy.sharding = #sdy.sharding_per_value<[<@mesh, [{"y"}]>]>} : (tensor<4xf32>) -> tensor<4xf32>
-// CHECK-NEXT:    %3 = func.call @foo_0(%2) {sdy.sharding = #sdy.sharding_per_value<[<@mesh, [{}]>]>} : (tensor<4xf32>) -> tensor<4xf32>
-// CHECK-NEXT:    sdy.return %3 : tensor<4xf32>
+// CHECK-NEXT:    %3 = func.call @foo(%arg1) {sdy.sharding = #sdy.sharding_per_value<[<@mesh, [{"y"}]>]>} : (tensor<4xf32>) -> tensor<4xf32>
+// CHECK-NEXT:    %4 = sdy.reshard %3 <@mesh, [{}]> : tensor<4xf32>
+// CHECK-NEXT:    %5 = func.call @foo_0(%4) {sdy.sharding = #sdy.sharding_per_value<[<@mesh, [{}]>]>} : (tensor<4xf32>) -> tensor<4xf32>
+// CHECK-NEXT:    sdy.return %5 : tensor<4xf32>
 // CHECK-NEXT:  } : (tensor<8xf32>) -> tensor<8xf32>
-// CHECK-NEXT:  %1 = call @bar(%0) {sdy.sharding = #sdy.sharding_per_value<[<@mesh, [{"y"}]>]>} : (tensor<8xf32>) -> tensor<8xf32>
-// CHECK-NEXT:  return %1 : tensor<8xf32>
+// CHECK-NEXT:  %1 = sdy.reshard %0 <@mesh, [{"y"}]> : tensor<8xf32>
+// CHECK-NEXT:  %2 = call @bar(%1) {sdy.sharding = #sdy.sharding_per_value<[<@mesh, [{"y"}]>]>} : (tensor<8xf32>) -> tensor<8xf32>
+// CHECK-NEXT:  return %2 : tensor<8xf32>
 func.func @calls_same_funcs_on_the_same_manual_axes_different_shardings(%arg0: tensor<8xf32> {sdy.sharding = #sdy.sharding<@mesh, [{"x", "y"}]>}) -> (tensor<8xf32> {sdy.sharding = #sdy.sharding<@mesh, [{"x", "y"}]>}) {
   %0 = sdy.manual_computation(%arg0) in_shardings=[<@mesh, [{"x", "y"}]>] out_shardings=[<@mesh, [{"x", "y"}]>] manual_axes={"x"} (%arg1: tensor<4xf32>) {
     %2 = func.call @foo(%arg1) {sdy.sharding = #sdy.sharding_per_value<[<@mesh, [{"y"}]>]>} : (tensor<4xf32>) -> tensor<4xf32>
@@ -925,9 +935,12 @@ attributes { sdy.original_func_name = "baz" } {
 sdy.mesh @mesh = <["x"=2, "y"=2]>
 // CHECK-LABEL: func @multiple_same_calls_different_shardings_different_number_of_call_sites
 func.func @multiple_same_calls_different_shardings_different_number_of_call_sites(%arg0: tensor<8x2xi32>) -> tensor<8x2xi32> {
-  // CHECK-NEXT: %[[CALL0:.*]] = call @baz(%arg0) {sdy.sharding = #sdy.sharding_per_value<[<@mesh, [{"x"}, {}]>]>} : (tensor<8x2xi32>) -> tensor<8x2xi32>
-  // CHECK-NEXT: %[[CALL1:.*]] = call @baz_0(%arg0) {sdy.sharding = #sdy.sharding_per_value<[<@mesh, [{"x"}, {"y"}]>]>} : (tensor<8x2xi32>) -> tensor<8x2xi32>
-  // CHECK-NEXT: %[[CALL2:.*]] = call @baz_0(%[[CALL0]]) {sdy.sharding = #sdy.sharding_per_value<[<@mesh, [{"x"}, {"y"}]>]>} : (tensor<8x2xi32>) -> tensor<8x2xi32>
+  // CHECK-NEXT: %[[COPY0:.*]] = sdy.reshard %arg0 <@mesh, [{}, {"y"}]> : tensor<8x2xi32>
+  // CHECK-NEXT: %[[CALL0:.*]] = call @baz(%[[COPY0]]) {sdy.sharding = #sdy.sharding_per_value<[<@mesh, [{"x"}, {}]>]>} : (tensor<8x2xi32>) -> tensor<8x2xi32>
+  // CHECK-NEXT: %[[COPY1:.*]] = sdy.reshard %arg0 <@mesh, [{}, {"y"}]> : tensor<8x2xi32>
+  // CHECK-NEXT: %[[CALL1:.*]] = call @baz_0(%[[COPY1]]) {sdy.sharding = #sdy.sharding_per_value<[<@mesh, [{"x"}, {"y"}]>]>} : (tensor<8x2xi32>) -> tensor<8x2xi32>
+  // CHECK-NEXT: %[[COPY2:.*]] = sdy.reshard %[[CALL0]] <@mesh, [{}, {"y"}]> : tensor<8x2xi32>
+  // CHECK-NEXT: %[[CALL2:.*]] = call @baz_0(%[[COPY2]]) {sdy.sharding = #sdy.sharding_per_value<[<@mesh, [{"x"}, {"y"}]>]>} : (tensor<8x2xi32>) -> tensor<8x2xi32>
   // CHECK-NEXT: return %[[CALL2]] : tensor<8x2xi32>
   %0 = call @baz(%arg0) {sdy.sharding = #sdy.sharding_per_value<[<@mesh, [{"x"}, {}]>]>} : (tensor<8x2xi32>) -> tensor<8x2xi32>
   %1 = call @baz_0(%arg0) {sdy.sharding = #sdy.sharding_per_value<[<@mesh, [{"x"}, {"y"}]>]>} : (tensor<8x2xi32>) -> tensor<8x2xi32>
@@ -995,16 +1008,18 @@ attributes { sdy.original_func_name = "baz" } {
 sdy.mesh @mesh = <["x"=2, "y"=2]>
 // CHECK-LABEL: func @calls_same_funcs_two_same_manual_axes_different_shardings_one_without_manual_axes(
 // CHECK-NEXT:  %0 = sdy.manual_computation(%arg0) in_shardings=[<@mesh, [{"x", "y"}]>] out_shardings=[<@mesh, [{"x", "y"}]>] manual_axes={"x"} (%arg1: tensor<4xf32>) {
-// CHECK-NEXT:    %3 = func.call @foo(%arg1) {sdy.sharding = #sdy.sharding_per_value<[<@mesh, [{"y"}]>]>} : (tensor<4xf32>) -> tensor<4xf32>
-// CHECK-NEXT:    %4 = func.call @foo_0(%3) {sdy.sharding = #sdy.sharding_per_value<[<@mesh, [{}]>]>} : (tensor<4xf32>) -> tensor<4xf32>
-// CHECK-NEXT:    sdy.return %4 : tensor<4xf32>
+// CHECK-NEXT:    %4 = func.call @foo(%arg1) {sdy.sharding = #sdy.sharding_per_value<[<@mesh, [{"y"}]>]>} : (tensor<4xf32>) -> tensor<4xf32>
+// CHECK-NEXT:    %5 = sdy.reshard %4 <@mesh, [{}]> : tensor<4xf32>
+// CHECK-NEXT:    %6 = func.call @foo_0(%5) {sdy.sharding = #sdy.sharding_per_value<[<@mesh, [{}]>]>} : (tensor<4xf32>) -> tensor<4xf32>
+// CHECK-NEXT:    sdy.return %6 : tensor<4xf32>
 // CHECK-NEXT:  } : (tensor<8xf32>) -> tensor<8xf32>
-// CHECK-NEXT:  %1 = call @bar(%0) {sdy.sharding = #sdy.sharding_per_value<[<@mesh, [{"y"}]>]>} : (tensor<8xf32>) -> tensor<8xf32>
-// CHECK-NEXT:  %2 = sdy.manual_computation(%1) in_shardings=[<@mesh, [{"x", "y"}]>] out_shardings=[<@mesh, [{"x", "y"}]>] manual_axes={"x"} (%arg1: tensor<4xf32>) {
-// CHECK-NEXT:    %3 = func.call @foo(%arg1) {sdy.sharding = #sdy.sharding_per_value<[<@mesh, [{"y"}]>]>} : (tensor<4xf32>) -> tensor<4xf32>
-// CHECK-NEXT:    sdy.return %3 : tensor<4xf32>
+// CHECK-NEXT:  %1 = sdy.reshard %0 <@mesh, [{"y"}]> : tensor<8xf32>
+// CHECK-NEXT:  %2 = call @bar(%1) {sdy.sharding = #sdy.sharding_per_value<[<@mesh, [{"y"}]>]>} : (tensor<8xf32>) -> tensor<8xf32>
+// CHECK-NEXT:  %3 = sdy.manual_computation(%2) in_shardings=[<@mesh, [{"x", "y"}]>] out_shardings=[<@mesh, [{"x", "y"}]>] manual_axes={"x"} (%arg1: tensor<4xf32>) {
+// CHECK-NEXT:    %4 = func.call @foo(%arg1) {sdy.sharding = #sdy.sharding_per_value<[<@mesh, [{"y"}]>]>} : (tensor<4xf32>) -> tensor<4xf32>
+// CHECK-NEXT:    sdy.return %4 : tensor<4xf32>
 // CHECK-NEXT:  } : (tensor<8xf32>) -> tensor<8xf32>
-// CHECK-NEXT:  return %2 : tensor<8xf32>
+// CHECK-NEXT:  return %3 : tensor<8xf32>
 func.func @calls_same_funcs_two_same_manual_axes_different_shardings_one_without_manual_axes(%arg0: tensor<8xf32>) -> tensor<8xf32> {
   %0 = sdy.manual_computation(%arg0) in_shardings=[<@mesh, [{"x", "y"}]>] out_shardings=[<@mesh, [{"x", "y"}]>] manual_axes={"x"} (%arg1: tensor<4xf32>) {
     %3 = func.call @foo(%arg1) {sdy.sharding = #sdy.sharding_per_value<[<@mesh, [{"y"}]>]>} : (tensor<4xf32>) -> tensor<4xf32>
@@ -1088,7 +1103,8 @@ sdy.mesh @mesh = <["x"=2, "y"=2]>
 func.func @multiple_same_calls_different_shardings_different_number_of_call_sites_without_original_func_names(%arg0: tensor<8x2xi32> {sdy.sharding = #sdy.sharding<@mesh, [{}, {"y"}]>}) -> tensor<8x2xi32> {
   // CHECK-NEXT: %[[CALL0:.*]] = call @baz(%arg0) {sdy.sharding = #sdy.sharding_per_value<[<@mesh, [{"x"}, {}]>]>}
   // CHECK-NEXT: %[[CALL1:.*]] = call @baz_0(%arg0) {sdy.sharding = #sdy.sharding_per_value<[<@mesh, [{"x"}, {"y"}]>]>}
-  // CHECK-NEXT: %[[CALL2:.*]] = call @baz_1(%[[CALL0]]) {sdy.sharding = #sdy.sharding_per_value<[<@mesh, [{"x"}, {"y"}]>]>}
+  // CHECK-NEXT: %[[COPY:.*]] = sdy.reshard %[[CALL0]] <@mesh, [{}, {"y"}]> : tensor<8x2xi32>
+  // CHECK-NEXT: %[[CALL2:.*]] = call @baz_1(%[[COPY]]) {sdy.sharding = #sdy.sharding_per_value<[<@mesh, [{"x"}, {"y"}]>]>}
   // CHECK-NEXT: return %[[CALL2]] : tensor<8x2xi32>
   %0 = call @baz(%arg0) {sdy.sharding = #sdy.sharding_per_value<[<@mesh, [{"x"}, {}]>]>} : (tensor<8x2xi32>) -> tensor<8x2xi32>
   %1 = call @baz_0(%arg0) {sdy.sharding = #sdy.sharding_per_value<[<@mesh, [{"x"}, {"y"}]>]>} : (tensor<8x2xi32>) -> tensor<8x2xi32>
@@ -1156,16 +1172,18 @@ func.func private @baz_0(%arg0: tensor<8x2xi32> {sdy.sharding = #sdy.sharding<@m
 sdy.mesh @mesh = <["x"=2, "y"=2]>
 // CHECK-LABEL: func @calls_same_funcs_two_same_manual_axes_different_shardings_one_without_manual_axes_without_original_func_names(
 // CHECK-NEXT:  %0 = sdy.manual_computation(%arg0) in_shardings=[<@mesh, [{"x", "y"}]>] out_shardings=[<@mesh, [{"x", "y"}]>] manual_axes={"x"} (%arg1: tensor<4xf32>) {
-// CHECK-NEXT:    %3 = func.call @foo(%arg1) {sdy.sharding = #sdy.sharding_per_value<[<@mesh, [{"y"}]>]>} : (tensor<4xf32>) -> tensor<4xf32>
-// CHECK-NEXT:    %4 = func.call @foo_0(%3) {sdy.sharding = #sdy.sharding_per_value<[<@mesh, [{}]>]>} : (tensor<4xf32>) -> tensor<4xf32>
-// CHECK-NEXT:    sdy.return %4 : tensor<4xf32>
+// CHECK-NEXT:    %4 = func.call @foo(%arg1) {sdy.sharding = #sdy.sharding_per_value<[<@mesh, [{"y"}]>]>} : (tensor<4xf32>) -> tensor<4xf32>
+// CHECK-NEXT:    %5 = sdy.reshard %4 <@mesh, [{}]> : tensor<4xf32>
+// CHECK-NEXT:    %6 = func.call @foo_0(%5) {sdy.sharding = #sdy.sharding_per_value<[<@mesh, [{}]>]>} : (tensor<4xf32>) -> tensor<4xf32>
+// CHECK-NEXT:    sdy.return %6 : tensor<4xf32>
 // CHECK-NEXT:  } : (tensor<8xf32>) -> tensor<8xf32>
-// CHECK-NEXT:  %1 = call @bar(%0) {sdy.sharding = #sdy.sharding_per_value<[<@mesh, [{"y"}]>]>} : (tensor<8xf32>) -> tensor<8xf32>
-// CHECK-NEXT:  %2 = sdy.manual_computation(%1) in_shardings=[<@mesh, [{"x", "y"}]>] out_shardings=[<@mesh, [{"x", "y"}]>] manual_axes={"x"} (%arg1: tensor<4xf32>) {
-// CHECK-NEXT:    %3 = func.call @foo_1(%arg1) {sdy.sharding = #sdy.sharding_per_value<[<@mesh, [{"y"}]>]>} : (tensor<4xf32>) -> tensor<4xf32>
-// CHECK-NEXT:    sdy.return %3 : tensor<4xf32>
+// CHECK-NEXT:  %1 = sdy.reshard %0 <@mesh, [{"y"}]> : tensor<8xf32>
+// CHECK-NEXT:  %2 = call @bar(%1) {sdy.sharding = #sdy.sharding_per_value<[<@mesh, [{"y"}]>]>} : (tensor<8xf32>) -> tensor<8xf32>
+// CHECK-NEXT:  %3 = sdy.manual_computation(%2) in_shardings=[<@mesh, [{"x", "y"}]>] out_shardings=[<@mesh, [{"x", "y"}]>] manual_axes={"x"} (%arg1: tensor<4xf32>) {
+// CHECK-NEXT:    %4 = func.call @foo_1(%arg1) {sdy.sharding = #sdy.sharding_per_value<[<@mesh, [{"y"}]>]>} : (tensor<4xf32>) -> tensor<4xf32>
+// CHECK-NEXT:    sdy.return %4 : tensor<4xf32>
 // CHECK-NEXT:  } : (tensor<8xf32>) -> tensor<8xf32>
-// CHECK-NEXT:  return %2 : tensor<8xf32>
+// CHECK-NEXT:  return %3 : tensor<8xf32>
 func.func @calls_same_funcs_two_same_manual_axes_different_shardings_one_without_manual_axes_without_original_func_names(%arg0: tensor<8xf32>) -> tensor<8xf32> {
   %0 = sdy.manual_computation(%arg0) in_shardings=[<@mesh, [{"x", "y"}]>] out_shardings=[<@mesh, [{"x", "y"}]>] manual_axes={"x"} (%arg1: tensor<4xf32>) {
     %3 = func.call @foo(%arg1) {sdy.sharding = #sdy.sharding_per_value<[<@mesh, [{"y"}]>]>} : (tensor<4xf32>) -> tensor<4xf32>
@@ -1238,7 +1256,8 @@ sdy.mesh @mesh = <["x"=2, "y"=2]>
 
 // CHECK-LABEL: func @single_call_different_argument_and_func_input_sharding(
 func.func @single_call_different_argument_and_func_input_sharding(%arg0: tensor<8x2xi32> {sdy.sharding = #sdy.sharding<@mesh, [{}, {"x"}]>}) -> tensor<8x2xi32> {
-  // CHECK-NEXT: %[[CALL:.*]] = call @baz(%arg0) {sdy.sharding = #sdy.sharding_per_value<[<@mesh, [{"x"}, {}]>]>} : (tensor<8x2xi32>) -> tensor<8x2xi32>
+  // CHECK-NEXT: %[[COPY:.*]] = sdy.reshard %arg0 <@mesh, [{}, {"y"}]> : tensor<8x2xi32>
+  // CHECK-NEXT: %[[CALL:.*]] = call @baz(%[[COPY]]) {sdy.sharding = #sdy.sharding_per_value<[<@mesh, [{"x"}, {}]>]>} : (tensor<8x2xi32>) -> tensor<8x2xi32>
   // CHECK-NEXT: return %[[CALL]] : tensor<8x2xi32>
   %0 = call @baz(%arg0) {sdy.sharding = #sdy.sharding_per_value<[<@mesh, [{"x"}, {}]>]>} : (tensor<8x2xi32>) -> tensor<8x2xi32>
   return %0 : tensor<8x2xi32>
@@ -1255,7 +1274,8 @@ sdy.mesh @mesh = <["x"=2, "y"=2]>
 
 // CHECK-LABEL: func @single_call_no_func_input_sharding(
 func.func @single_call_no_func_input_sharding(%arg0: tensor<8x2xi32> {sdy.sharding = #sdy.sharding<@mesh, [{}, {"y"}]>}) -> tensor<8x2xi32> {
-  // CHECK-NEXT: %[[CALL:.*]] = call @baz(%arg0) {sdy.sharding = #sdy.sharding_per_value<[<@mesh, [{"x"}, {}]>]>} : (tensor<8x2xi32>) -> tensor<8x2xi32>
+  // CHECK-NEXT: %[[COPY:.*]] = sdy.reshard %arg0 <@mesh, [{}, {}]> : tensor<8x2xi32>
+  // CHECK-NEXT: %[[CALL:.*]] = call @baz(%[[COPY]]) {sdy.sharding = #sdy.sharding_per_value<[<@mesh, [{"x"}, {}]>]>} : (tensor<8x2xi32>) -> tensor<8x2xi32>
   // CHECK-NEXT: return %[[CALL]] : tensor<8x2xi32>
   %0 = call @baz(%arg0) {sdy.sharding = #sdy.sharding_per_value<[<@mesh, [{"x"}, {}]>]>} : (tensor<8x2xi32>) -> tensor<8x2xi32>
   return %0 : tensor<8x2xi32>
@@ -1272,7 +1292,8 @@ sdy.mesh @mesh = <["x"=2, "y"=2]>
 
 // CHECK-LABEL: func @single_call_different_argument_and_func_input_sharding_argument_reused(
 func.func @single_call_different_argument_and_func_input_sharding_argument_reused(%arg0: tensor<8x2xi32> {sdy.sharding = #sdy.sharding<@mesh, [{}, {"x"}]>}) -> tensor<8x2xi32> {
-  // CHECK-NEXT: %[[CALL:.*]] = call @baz(%arg0) {sdy.sharding = #sdy.sharding_per_value<[<@mesh, [{"x"}, {}]>]>} : (tensor<8x2xi32>) -> tensor<8x2xi32>
+  // CHECK-NEXT: %[[COPY:.*]] = sdy.reshard %arg0 <@mesh, [{}, {"y"}]> : tensor<8x2xi32>
+  // CHECK-NEXT: %[[CALL:.*]] = call @baz(%[[COPY]]) {sdy.sharding = #sdy.sharding_per_value<[<@mesh, [{"x"}, {}]>]>} : (tensor<8x2xi32>) -> tensor<8x2xi32>
   // CHECK-NEXT: %[[ADD:.*]] = stablehlo.add %[[CALL]], %arg0 : tensor<8x2xi32>
   // CHECK-NEXT: return %[[ADD]] : tensor<8x2xi32>
   %0 = call @baz(%arg0) {sdy.sharding = #sdy.sharding_per_value<[<@mesh, [{"x"}, {}]>]>} : (tensor<8x2xi32>) -> tensor<8x2xi32>
@@ -1441,7 +1462,8 @@ sdy.mesh @mesh = <["x"=2, "y"=2]>
 
 // CHECK-LABEL: func @single_call_func_arg_has_sharding_call_arg_no_sharding(
 func.func @single_call_func_arg_has_sharding_call_arg_no_sharding(%arg0: tensor<8x2xi32>) -> tensor<8x2xi32> {
-  // CHECK-NEXT: %[[CALL:.*]] = call @baz(%arg0) :
+  // CHECK-NEXT: %[[COPY:.*]] = sdy.reshard %arg0 <@mesh, [{}, {"y"}]> : tensor<8x2xi32>
+  // CHECK-NEXT: %[[CALL:.*]] = call @baz(%[[COPY]]) :
   // CHECK-NEXT: return %[[CALL]]
   %0 = call @baz(%arg0) : (tensor<8x2xi32>) -> tensor<8x2xi32>
   return %0 : tensor<8x2xi32>
@@ -1458,7 +1480,8 @@ sdy.mesh @mesh = <["x"=2, "y"=2]>
 
 // CHECK-LABEL: func @single_call_func_arg_no_sharding_call_arg_has_sharding(
 func.func @single_call_func_arg_no_sharding_call_arg_has_sharding(%arg0: tensor<8x2xi32> {sdy.sharding = #sdy.sharding<@mesh, [{}, {"y"}]>}) -> tensor<8x2xi32> {
-  // CHECK-NEXT: %[[CALL:.*]] = call @baz(%arg0) :
+  // CHECK-NEXT: %[[COPY:.*]] = sdy.reshard %arg0 <@mesh, [{}, {}]> : tensor<8x2xi32>
+  // CHECK-NEXT: %[[CALL:.*]] = call @baz(%[[COPY]]) :
   // CHECK-NEXT: return %[[CALL]]
   %0 = call @baz(%arg0) : (tensor<8x2xi32>) -> tensor<8x2xi32>
   return %0 : tensor<8x2xi32>
@@ -1479,6 +1502,7 @@ sdy.mesh @mesh = <["a"=2]>
 // CHECK-NEXT:      func.call @bar_0
 // CHECK-NEXT:      sdy.return
 // CHECK-NEXT:    }
+// CHECK-NEXT:    sdy.reshard
 // CHECK-NEXT:    call @bar
 // CHECK-NEXT:    return
 func.func @non_flat_manual_computation_and_non_manual_computation_calls_same_original_func(%arg0: tensor<8xi32>) -> (tensor<8xi32>, tensor<8xi32>) {
@@ -1593,26 +1617,3 @@ func.func private @bar_0(%arg0: tensor<8xi32>) -> tensor<8xi32> attributes {sdy.
 func.func private @bar_1(%arg0: tensor<8xi32>) -> tensor<8xi32> attributes {sdy.func_manual_axes = #sdy<manual_axes{"a"}>, sdy.original_func_name = "bar"} {
   return %arg0 : tensor<8xi32>
 }
-
-// -----
-sdy.mesh @mesh = <["x"=2, "y"=2]>
-//CHECK-LABEL: func @three_calls_same_origin_func_with_different_func_input_shardings(
-func.func @three_calls_same_origin_func_with_different_func_input_shardings(%arg0: tensor<8x2xi32> {sdy.sharding = #sdy.sharding<@mesh, [{}, {"x"}]>}) -> tensor<8x2xi32> {
-  // CHECK-NEXT: %0 = call @baz(%arg0) :
-  // CHECK-NEXT: %1 = call @baz_0(%arg0) :
-  // CHECK-NEXT: %2 = call @baz_0(%arg0) :
-  %0 = call @baz(%arg0) : (tensor<8x2xi32>) -> tensor<8x2xi32>
-  %1 = call @baz_0(%arg0) : (tensor<8x2xi32>) -> tensor<8x2xi32>
-  %2 = call @baz_0(%arg0) : (tensor<8x2xi32>) -> tensor<8x2xi32>
-  %3 = stablehlo.add %0, %1 : tensor<8x2xi32>
-  return %3 : tensor<8x2xi32>
-}
-func.func private @baz(%arg0: tensor<8x2xi32> {sdy.sharding = #sdy.sharding<@mesh, [{}, {"x"}]>}) -> tensor<8x2xi32> {
-  %0 = stablehlo.multiply %arg0, %arg0 : tensor<8x2xi32>
-  return %0 : tensor<8x2xi32>
-}
-func.func private @baz_0(%arg0: tensor<8x2xi32> {sdy.sharding = #sdy.sharding<@mesh, [{}, {"y"}]>}) -> tensor<8x2xi32>
-attributes { sdy.original_func_name = "baz" } {
-  %0 = stablehlo.multiply %arg0, %arg0: tensor<8x2xi32>
-  return %0 : tensor<8x2xi32>
-}
diff --git a/shardy/dialect/sdy/transforms/export/test/unflatten_call_graph_dedup_functions_fully_true.mlir b/shardy/dialect/sdy/transforms/export/test/unflatten_call_graph_dedup_functions_fully_true.mlir
index e2ad522..7d50262 100644
--- a/shardy/dialect/sdy/transforms/export/test/unflatten_call_graph_dedup_functions_fully_true.mlir
+++ b/shardy/dialect/sdy/transforms/export/test/unflatten_call_graph_dedup_functions_fully_true.mlir
@@ -12,7 +12,8 @@ sdy.mesh @mesh = <["x"=2, "y"=2]>
 // CHECK-SAME: %arg0: tensor<8x2xi32> {sdy.sharding = #sdy.sharding<@mesh, [{"y"}, {"x"}]>})
 // CHECK-SAME: -> (tensor<8x2xi32> {sdy.sharding = #sdy.sharding<@mesh, [{"x"}, {"y"}]>}) {
 func.func @ignore_operand_shardings(%arg0: tensor<8x2xi32> {sdy.sharding = #sdy.sharding<@mesh, [{"y"}, {"x"}]>}) -> (tensor<8x2xi32> {sdy.sharding = #sdy.sharding<@mesh, [{"x"}, {"y"}]>}) {
-  // CHECK-NEXT: %[[CALL:.*]] = call @foo(%arg0)
+  // CHECK-NEXT: %[[COPY:.*]] = sdy.reshard %arg0 <@mesh, [{}, {"y"}]> : tensor<8x2xi32>
+  // CHECK-NEXT: %[[CALL:.*]] = call @foo(%[[COPY]])
   // CHECK-SAME:   {mhlo.frontend_attributes = {backend_config = "{\22flag_configs\22:[],\22scoped_memory_configs\22:[],\22device_type\22:\22DEVICE_TYPE_HOST\22,\22used_scoped_memory_configs\22:[]}"},
   // CHECK-SAME:    random_attr = "random_value",
   // CHECK-SAME:    sdy.sharding = #sdy.sharding_per_value<[<@mesh, [{"x"}, {}]>]>}
@@ -380,12 +381,13 @@ sdy.mesh @mesh = <["x"=2, "y"=2]>
 // CHECK-SAME:      %arg0: tensor<8xf32> {sdy.sharding = #sdy.sharding<@mesh, [{"x", "y"}]>}
 // CHECK-SAME:      -> (tensor<8xf32> {sdy.sharding = #sdy.sharding<@mesh, [{"x", "y"}]>}) {
 // CHECK:       %0 = sdy.manual_computation(%arg0) in_shardings=[<@mesh, [{"x", "y"}]>] out_shardings=[<@mesh, [{"x", "y"}]>] manual_axes={"x"} (%arg1: tensor<4xf32>) {
-// CHECK-NEXT:    %2 = func.call @foo(%arg1) {sdy.sharding = #sdy.sharding_per_value<[<@mesh, [{"y"}]>]>} : (tensor<4xf32>) -> tensor<4xf32>
-// CHECK-NEXT:    %3 = func.call @foo(%2) {sdy.sharding = #sdy.sharding_per_value<[<@mesh, [{"y"}]>]>} : (tensor<4xf32>) -> tensor<4xf32>
-// CHECK-NEXT:    sdy.return %3 : tensor<4xf32>
+// CHECK-NEXT:    %3 = func.call @foo(%arg1) {sdy.sharding = #sdy.sharding_per_value<[<@mesh, [{"y"}]>]>} : (tensor<4xf32>) -> tensor<4xf32>
+// CHECK-NEXT:    %4 = func.call @foo(%3) {sdy.sharding = #sdy.sharding_per_value<[<@mesh, [{"y"}]>]>} : (tensor<4xf32>) -> tensor<4xf32>
+// CHECK-NEXT:    sdy.return %4 : tensor<4xf32>
 // CHECK-NEXT:  } : (tensor<8xf32>) -> tensor<8xf32>
-// CHECK-NEXT:  %1 = call @bar(%0) {sdy.sharding = #sdy.sharding_per_value<[<@mesh, [{"y"}]>]>} : (tensor<8xf32>) -> tensor<8xf32>
-// CHECK-NEXT:  return %1 : tensor<8xf32>
+// CHECK-NEXT:  %1 = sdy.reshard %0 <@mesh, [{"y"}]> : tensor<8xf32>
+// CHECK-NEXT:  %2 = call @bar(%1) {sdy.sharding = #sdy.sharding_per_value<[<@mesh, [{"y"}]>]>} : (tensor<8xf32>) -> tensor<8xf32>
+// CHECK-NEXT:  return %2 : tensor<8xf32>
 func.func @calls_different_funcs_with_manual_axes_one_without(%arg0: tensor<8xf32> {sdy.sharding = #sdy.sharding<@mesh, [{"x", "y"}]>}) -> (tensor<8xf32> {sdy.sharding = #sdy.sharding<@mesh, [{"x", "y"}]>}) {
   %0 = sdy.manual_computation(%arg0) in_shardings=[<@mesh, [{"x", "y"}]>] out_shardings=[<@mesh, [{"x", "y"}]>] manual_axes={"x"} (%arg1: tensor<4xf32>) {
     %2 = func.call @foo(%arg1) {sdy.sharding = #sdy.sharding_per_value<[<@mesh, [{"y"}]>]>} : (tensor<4xf32>) -> tensor<4xf32>
@@ -428,12 +430,13 @@ sdy.mesh @mesh = <["x"=2, "y"=2]>
 // CHECK-SAME:      %arg0: tensor<8xf32> {sdy.sharding = #sdy.sharding<@mesh, [{"x", "y"}]>}
 // CHECK-SAME:      -> (tensor<8xf32> {sdy.sharding = #sdy.sharding<@mesh, [{"x", "y"}]>}) {
 // CHECK:       %0 = sdy.manual_computation(%arg0) in_shardings=[<@mesh, [{"x", "y"}]>] out_shardings=[<@mesh, [{"x", "y"}]>] manual_axes={"x"} (%arg1: tensor<4xf32>) {
-// CHECK-NEXT:    %2 = func.call @foo(%arg1) {sdy.sharding = #sdy.sharding_per_value<[<@mesh, [{"y"}]>]>} : (tensor<4xf32>) -> tensor<4xf32>
-// CHECK-NEXT:    %3 = func.call @foo(%2) {sdy.sharding = #sdy.sharding_per_value<[<@mesh, [{"y"}]>]>} : (tensor<4xf32>) -> tensor<4xf32>
-// CHECK-NEXT:    sdy.return %3 : tensor<4xf32>
+// CHECK-NEXT:    %3 = func.call @foo(%arg1) {sdy.sharding = #sdy.sharding_per_value<[<@mesh, [{"y"}]>]>} : (tensor<4xf32>) -> tensor<4xf32>
+// CHECK-NEXT:    %4 = func.call @foo(%3) {sdy.sharding = #sdy.sharding_per_value<[<@mesh, [{"y"}]>]>} : (tensor<4xf32>) -> tensor<4xf32>
+// CHECK-NEXT:    sdy.return %4 : tensor<4xf32>
 // CHECK-NEXT:  } : (tensor<8xf32>) -> tensor<8xf32>
-// CHECK-NEXT:  %1 = call @bar(%0) {sdy.sharding = #sdy.sharding_per_value<[<@mesh, [{"y"}]>]>} : (tensor<8xf32>) -> tensor<8xf32>
-// CHECK-NEXT:  return %1 : tensor<8xf32>
+// CHECK-NEXT:  %1 = sdy.reshard %0 <@mesh, [{"y"}]> : tensor<8xf32>
+// CHECK-NEXT:  %2 = call @bar(%1) {sdy.sharding = #sdy.sharding_per_value<[<@mesh, [{"y"}]>]>} : (tensor<8xf32>) -> tensor<8xf32>
+// CHECK-NEXT:  return %2 : tensor<8xf32>
 func.func @calls_same_funcs_with_manual_axes_one_without(%arg0: tensor<8xf32> {sdy.sharding = #sdy.sharding<@mesh, [{"x", "y"}]>}) -> (tensor<8xf32> {sdy.sharding = #sdy.sharding<@mesh, [{"x", "y"}]>}) {
   %0 = sdy.manual_computation(%arg0) in_shardings=[<@mesh, [{"x", "y"}]>] out_shardings=[<@mesh, [{"x", "y"}]>] manual_axes={"x"} (%arg1: tensor<4xf32>) {
     %2 = func.call @foo(%arg1) {sdy.sharding = #sdy.sharding_per_value<[<@mesh, [{"y"}]>]>} : (tensor<4xf32>) -> tensor<4xf32>
@@ -476,15 +479,16 @@ sdy.mesh @mesh = <["x"=2, "y"=2]>
 // CHECK-SAME:      %arg0: tensor<8xf32> {sdy.sharding = #sdy.sharding<@mesh, [{"y"}]>}
 // CHECK-SAME:      -> (tensor<8xf32> {sdy.sharding = #sdy.sharding<@mesh, [{"y"}]>}) {
 // CHECK:       %0 = sdy.manual_computation(%arg0) in_shardings=[<@mesh, [{"y"}]>] out_shardings=[<@mesh, [{"y"}]>] manual_axes={} (%arg1: tensor<8xf32>) {
-// CHECK-NEXT:    %3 = func.call @foo(%arg1) {sdy.sharding = #sdy.sharding_per_value<[<@mesh, [{"y"}]>]>} : (tensor<8xf32>) -> tensor<8xf32>
-// CHECK-NEXT:    sdy.return %3 : tensor<8xf32>
+// CHECK-NEXT:    %4 = func.call @foo(%arg1) {sdy.sharding = #sdy.sharding_per_value<[<@mesh, [{"y"}]>]>} : (tensor<8xf32>) -> tensor<8xf32>
+// CHECK-NEXT:    sdy.return %4 : tensor<8xf32>
 // CHECK-NEXT:  } : (tensor<8xf32>) -> tensor<8xf32>
 // CHECK-NEXT:  %1 = sdy.manual_computation(%0) in_shardings=[<@mesh, [{"x", "y"}]>] out_shardings=[<@mesh, [{"x", "y"}]>] manual_axes={"x"} (%arg1: tensor<4xf32>) {
-// CHECK-NEXT:    %3 = func.call @bar(%arg1) {sdy.sharding = #sdy.sharding_per_value<[<@mesh, [{"y"}]>]>} : (tensor<4xf32>) -> tensor<4xf32>
-// CHECK-NEXT:    sdy.return %3 : tensor<4xf32>
+// CHECK-NEXT:    %4 = func.call @bar(%arg1) {sdy.sharding = #sdy.sharding_per_value<[<@mesh, [{"y"}]>]>} : (tensor<4xf32>) -> tensor<4xf32>
+// CHECK-NEXT:    sdy.return %4 : tensor<4xf32>
 // CHECK-NEXT:  } : (tensor<8xf32>) -> tensor<8xf32>
-// CHECK-NEXT:  %2 = call @foo(%1) {sdy.sharding = #sdy.sharding_per_value<[<@mesh, [{"y"}]>]>} : (tensor<8xf32>) -> tensor<8xf32>
-// CHECK-NEXT:  return %2 : tensor<8xf32>
+// CHECK-NEXT:  %2 = sdy.reshard %1 <@mesh, [{"y"}]> : tensor<8xf32>
+// CHECK-NEXT:  %3 = call @foo(%2) {sdy.sharding = #sdy.sharding_per_value<[<@mesh, [{"y"}]>]>} : (tensor<8xf32>) -> tensor<8xf32>
+// CHECK-NEXT:  return %3 : tensor<8xf32>
 func.func @calls_same_funcs_without_manual_axes_one_inside_manual_computation(%arg0: tensor<8xf32> {sdy.sharding = #sdy.sharding<@mesh, [{"y"}]>}) -> (tensor<8xf32> {sdy.sharding = #sdy.sharding<@mesh, [{"y"}]>}) {
   %0 = sdy.manual_computation(%arg0) in_shardings=[<@mesh, [{"y"}]>] out_shardings=[<@mesh, [{"y"}]>] manual_axes={} (%arg1: tensor<8xf32>) {
     %3 = func.call @foo(%arg1) {sdy.sharding = #sdy.sharding_per_value<[<@mesh, [{"y"}]>]>} : (tensor<8xf32>) -> tensor<8xf32>
@@ -523,14 +527,15 @@ sdy.mesh @mesh = <["x"=2, "y"=2]>
 // CHECK-SAME:      %arg0: tensor<8xf32> {sdy.sharding = #sdy.sharding<@mesh, [{"x", "y"}]>}
 // CHECK-SAME:      -> (tensor<8xf32> {sdy.sharding = #sdy.sharding<@mesh, [{"x", "y"}]>}) {
 // CHECK:       %0 = sdy.manual_computation(%arg0) in_shardings=[<@mesh, [{"x", "y"}]>] out_shardings=[<@mesh, [{"x", "y"}]>] manual_axes={"x"} (%arg1: tensor<4xf32>) {
-// CHECK-NEXT:    %4 = func.call @bar(%arg1) {sdy.sharding = #sdy.sharding_per_value<[<@mesh, [{"y"}]>]>} : (tensor<4xf32>) -> tensor<4xf32>
-// CHECK-NEXT:    %5 = func.call @bar(%4) {sdy.sharding = #sdy.sharding_per_value<[<@mesh, [{"y"}]>]>} : (tensor<4xf32>) -> tensor<4xf32>
-// CHECK-NEXT:    sdy.return %5 : tensor<4xf32>
+// CHECK-NEXT:    %5 = func.call @bar(%arg1) {sdy.sharding = #sdy.sharding_per_value<[<@mesh, [{"y"}]>]>} : (tensor<4xf32>) -> tensor<4xf32>
+// CHECK-NEXT:    %6 = func.call @bar(%5) {sdy.sharding = #sdy.sharding_per_value<[<@mesh, [{"y"}]>]>} : (tensor<4xf32>) -> tensor<4xf32>
+// CHECK-NEXT:    sdy.return %6 : tensor<4xf32>
 // CHECK-NEXT:  } : (tensor<8xf32>) -> tensor<8xf32>
-// CHECK-NEXT:  %1 = call @foo(%0) {sdy.sharding = #sdy.sharding_per_value<[<@mesh, [{"y"}]>]>} : (tensor<8xf32>) -> tensor<8xf32>
+// CHECK-NEXT:  %1 = sdy.reshard %0 <@mesh, [{"y"}]> : tensor<8xf32>
 // CHECK-NEXT:  %2 = call @foo(%1) {sdy.sharding = #sdy.sharding_per_value<[<@mesh, [{"y"}]>]>} : (tensor<8xf32>) -> tensor<8xf32>
-// CHECK-NEXT:  %3 = call @foo(%2) {sdy.sharding = #sdy.sharding_per_value<[<@mesh, [{"x", "y"}]>]>} : (tensor<8xf32>) -> tensor<8xf32>
-// CHECK-NEXT:  return %3 : tensor<8xf32>
+// CHECK-NEXT:  %3 = call @foo(%2) {sdy.sharding = #sdy.sharding_per_value<[<@mesh, [{"y"}]>]>} : (tensor<8xf32>) -> tensor<8xf32>
+// CHECK-NEXT:  %4 = call @foo(%3) {sdy.sharding = #sdy.sharding_per_value<[<@mesh, [{"x", "y"}]>]>} : (tensor<8xf32>) -> tensor<8xf32>
+// CHECK-NEXT:  return %4 : tensor<8xf32>
 func.func @calls_with_manual_axes(%arg0: tensor<8xf32> {sdy.sharding = #sdy.sharding<@mesh, [{"x", "y"}]>}) -> (tensor<8xf32> {sdy.sharding = #sdy.sharding<@mesh, [{"x", "y"}]>}) {
   %0 = sdy.manual_computation(%arg0) in_shardings=[<@mesh, [{"x", "y"}]>] out_shardings=[<@mesh, [{"x", "y"}]>] manual_axes={"x"} (%arg1: tensor<4xf32>) {
     %4 = func.call @bar(%arg1) {sdy.sharding = #sdy.sharding_per_value<[<@mesh, [{"y"}]>]>} : (tensor<4xf32>) -> tensor<4xf32>
@@ -766,19 +771,21 @@ sdy.mesh @mesh = <["x"=2, "y"=2]>
 // CHECK-SAME:      %arg0: tensor<8xf32> {sdy.sharding = #sdy.sharding<@mesh, [{"x", "y"}]>}
 // CHECK-SAME:      -> (tensor<8xf32> {sdy.sharding = #sdy.sharding<@mesh, [{"x", "y"}]>}) {
 // CHECK:       %0 = sdy.manual_computation(%arg0) in_shardings=[<@mesh, [{"x", "y"}]>] out_shardings=[<@mesh, [{"x", "y"}]>] manual_axes={"x"} (%arg1: tensor<4xf32>) {
-// CHECK-NEXT:    %3 = sdy.manual_computation(%arg1) in_shardings=[<@mesh, [{"y"}]>] out_shardings=[<@mesh, [{"y"}]>] manual_axes={"y"} (%arg2: tensor<2xf32>) {
-// CHECK-NEXT:      %5 = func.call @foo(%arg2) {sdy.sharding = #sdy.sharding_per_value<[<@mesh, [{}]>]>} : (tensor<2xf32>) -> tensor<2xf32>
-// CHECK-NEXT:        sdy.return %5 : tensor<2xf32>
+// CHECK-NEXT:    %4 = sdy.manual_computation(%arg1) in_shardings=[<@mesh, [{"y"}]>] out_shardings=[<@mesh, [{"y"}]>] manual_axes={"y"} (%arg2: tensor<2xf32>) {
+// CHECK-NEXT:      %7 = func.call @foo(%arg2) {sdy.sharding = #sdy.sharding_per_value<[<@mesh, [{}]>]>} : (tensor<2xf32>) -> tensor<2xf32>
+// CHECK-NEXT:        sdy.return %7 : tensor<2xf32>
 // CHECK-NEXT:      } : (tensor<4xf32>) -> tensor<4xf32>
-// CHECK-NEXT:      %4 = func.call @bar(%3) {sdy.sharding = #sdy.sharding_per_value<[<@mesh, [{}]>]>} : (tensor<4xf32>) -> tensor<4xf32>
-// CHECK-NEXT:      sdy.return %4 : tensor<4xf32>
+// CHECK-NEXT:      %5 = sdy.reshard %4 <@mesh, [{}]> : tensor<4xf32>
+// CHECK-NEXT:      %6 = func.call @bar(%5) {sdy.sharding = #sdy.sharding_per_value<[<@mesh, [{}]>]>} : (tensor<4xf32>) -> tensor<4xf32>
+// CHECK-NEXT:      sdy.return %6 : tensor<4xf32>
 // CHECK-NEXT:    } : (tensor<8xf32>) -> tensor<8xf32>
 // CHECK-NEXT:    %1 = sdy.manual_computation(%0) in_shardings=[<@mesh, [{"x", "y"}]>] out_shardings=[<@mesh, [{"x", "y"}]>] manual_axes={"x", "y"} (%arg1: tensor<2xf32>) {
-// CHECK-NEXT:      %3 = func.call @foo(%arg1) {sdy.sharding = #sdy.sharding_per_value<[<@mesh, [{}]>]>} : (tensor<2xf32>) -> tensor<2xf32>
-// CHECK-NEXT:      sdy.return %3 : tensor<2xf32>
+// CHECK-NEXT:      %4 = func.call @foo(%arg1) {sdy.sharding = #sdy.sharding_per_value<[<@mesh, [{}]>]>} : (tensor<2xf32>) -> tensor<2xf32>
+// CHECK-NEXT:      sdy.return %4 : tensor<2xf32>
 // CHECK-NEXT:    } : (tensor<8xf32>) -> tensor<8xf32>
-// CHECK-NEXT:    %2 = call @baz(%1) {sdy.sharding = #sdy.sharding_per_value<[<@mesh, [{"x"}]>]>} : (tensor<8xf32>) -> tensor<8xf32>
-// CHECK-NEXT:    return %2 : tensor<8xf32>
+// CHECK-NEXT:    %2 = sdy.reshard %1 <@mesh, [{"x"}]> : tensor<8xf32>
+// CHECK-NEXT:    %3 = call @baz(%2) {sdy.sharding = #sdy.sharding_per_value<[<@mesh, [{"x"}]>]>} : (tensor<8xf32>) -> tensor<8xf32>
+// CHECK-NEXT:    return %3 : tensor<8xf32>
 func.func @nested_manual_computations(%arg0: tensor<8xf32> {sdy.sharding = #sdy.sharding<@mesh, [{"x", "y"}]>}) -> (tensor<8xf32> {sdy.sharding = #sdy.sharding<@mesh, [{"x", "y"}]>}) {
   %0 = sdy.manual_computation(%arg0) in_shardings=[<@mesh, [{"x", "y"}]>] out_shardings=[<@mesh, [{"x", "y"}]>] manual_axes={"x"} (%arg1: tensor<4xf32>) {
     %3 = sdy.manual_computation(%arg1) in_shardings=[<@mesh, [{"y"}]>] out_shardings=[<@mesh, [{"y"}]>] manual_axes={"y"} (%arg2: tensor<2xf32>) {
@@ -840,12 +847,13 @@ sdy.mesh @mesh = <["x"=2, "y"=2]>
 // CHECK-SAME:      %arg0: tensor<8xf32> {sdy.sharding = #sdy.sharding<@mesh, [{"x", "y"}]>}
 // CHECK-SAME:      -> (tensor<8xf32> {sdy.sharding = #sdy.sharding<@mesh, [{"x", "y"}]>}) {
 // CHECK-NEXT:  %0 = sdy.manual_computation(%arg0) in_shardings=[<@mesh, [{"x", "y"}]>] out_shardings=[<@mesh, [{"x", "y"}]>] manual_axes={"x"} (%arg1: tensor<4xf32>) {
-// CHECK-NEXT:    %2 = func.call @foo(%arg1) {sdy.sharding = #sdy.sharding_per_value<[<@mesh, [{"y"}]>]>} : (tensor<4xf32>) -> tensor<4xf32>
-// CHECK-NEXT:    %3 = func.call @foo(%2) {sdy.sharding = #sdy.sharding_per_value<[<@mesh, [{}]>]>} : (tensor<4xf32>) -> tensor<4xf32>
-// CHECK-NEXT:    sdy.return %3 : tensor<4xf32>
+// CHECK-NEXT:    %3 = func.call @foo(%arg1) {sdy.sharding = #sdy.sharding_per_value<[<@mesh, [{"y"}]>]>} : (tensor<4xf32>) -> tensor<4xf32>
+// CHECK-NEXT:    %4 = func.call @foo(%3) {sdy.sharding = #sdy.sharding_per_value<[<@mesh, [{}]>]>} : (tensor<4xf32>) -> tensor<4xf32>
+// CHECK-NEXT:    sdy.return %4 : tensor<4xf32>
 // CHECK-NEXT:  } : (tensor<8xf32>) -> tensor<8xf32>
-// CHECK-NEXT:  %1 = call @bar(%0) {sdy.sharding = #sdy.sharding_per_value<[<@mesh, [{"y"}]>]>} : (tensor<8xf32>) -> tensor<8xf32>
-// CHECK-NEXT:  return %1 : tensor<8xf32>
+// CHECK-NEXT:  %1 = sdy.reshard %0 <@mesh, [{"y"}]> : tensor<8xf32>
+// CHECK-NEXT:  %2 = call @bar(%1) {sdy.sharding = #sdy.sharding_per_value<[<@mesh, [{"y"}]>]>} : (tensor<8xf32>) -> tensor<8xf32>
+// CHECK-NEXT:  return %2 : tensor<8xf32>
 func.func @calls_same_funcs_on_the_same_manual_axes_different_shardings(%arg0: tensor<8xf32> {sdy.sharding = #sdy.sharding<@mesh, [{"x", "y"}]>}) -> (tensor<8xf32> {sdy.sharding = #sdy.sharding<@mesh, [{"x", "y"}]>}) {
   %0 = sdy.manual_computation(%arg0) in_shardings=[<@mesh, [{"x", "y"}]>] out_shardings=[<@mesh, [{"x", "y"}]>] manual_axes={"x"} (%arg1: tensor<4xf32>) {
     %2 = func.call @foo(%arg1) {sdy.sharding = #sdy.sharding_per_value<[<@mesh, [{"y"}]>]>} : (tensor<4xf32>) -> tensor<4xf32>
@@ -1016,16 +1024,17 @@ attributes { sdy.original_func_name = "baz" } {
 sdy.mesh @mesh = <["x"=2, "y"=2]>
 // CHECK-LABEL: func @calls_same_funcs_two_same_manual_axes_different_shardings_one_without_manual_axes(
 // CHECK-NEXT:  %0 = sdy.manual_computation(%arg0) in_shardings=[<@mesh, [{"x", "y"}]>] out_shardings=[<@mesh, [{"x", "y"}]>] manual_axes={"x"} (%arg1: tensor<4xf32>) {
-// CHECK-NEXT:    %3 = func.call @foo(%arg1) {sdy.sharding = #sdy.sharding_per_value<[<@mesh, [{"y"}]>]>} : (tensor<4xf32>) -> tensor<4xf32>
-// CHECK-NEXT:    %4 = func.call @foo(%3) {sdy.sharding = #sdy.sharding_per_value<[<@mesh, [{}]>]>} : (tensor<4xf32>) -> tensor<4xf32>
-// CHECK-NEXT:    sdy.return %4 : tensor<4xf32>
+// CHECK-NEXT:    %4 = func.call @foo(%arg1) {sdy.sharding = #sdy.sharding_per_value<[<@mesh, [{"y"}]>]>} : (tensor<4xf32>) -> tensor<4xf32>
+// CHECK-NEXT:    %5 = func.call @foo(%4) {sdy.sharding = #sdy.sharding_per_value<[<@mesh, [{}]>]>} : (tensor<4xf32>) -> tensor<4xf32>
+// CHECK-NEXT:    sdy.return %5 : tensor<4xf32>
 // CHECK-NEXT:  } : (tensor<8xf32>) -> tensor<8xf32>
-// CHECK-NEXT:  %1 = call @bar(%0) {sdy.sharding = #sdy.sharding_per_value<[<@mesh, [{"y"}]>]>} : (tensor<8xf32>) -> tensor<8xf32>
-// CHECK-NEXT:  %2 = sdy.manual_computation(%1) in_shardings=[<@mesh, [{"x", "y"}]>] out_shardings=[<@mesh, [{"x", "y"}]>] manual_axes={"x"} (%arg1: tensor<4xf32>) {
-// CHECK-NEXT:    %3 = func.call @foo(%arg1) {sdy.sharding = #sdy.sharding_per_value<[<@mesh, [{"y"}]>]>} : (tensor<4xf32>) -> tensor<4xf32>
-// CHECK-NEXT:    sdy.return %3 : tensor<4xf32>
+// CHECK-NEXT:  %1 = sdy.reshard %0 <@mesh, [{"y"}]> : tensor<8xf32>
+// CHECK-NEXT:  %2 = call @bar(%1) {sdy.sharding = #sdy.sharding_per_value<[<@mesh, [{"y"}]>]>} : (tensor<8xf32>) -> tensor<8xf32>
+// CHECK-NEXT:  %3 = sdy.manual_computation(%2) in_shardings=[<@mesh, [{"x", "y"}]>] out_shardings=[<@mesh, [{"x", "y"}]>] manual_axes={"x"} (%arg1: tensor<4xf32>) {
+// CHECK-NEXT:    %4 = func.call @foo(%arg1) {sdy.sharding = #sdy.sharding_per_value<[<@mesh, [{"y"}]>]>} : (tensor<4xf32>) -> tensor<4xf32>
+// CHECK-NEXT:    sdy.return %4 : tensor<4xf32>
 // CHECK-NEXT:  } : (tensor<8xf32>) -> tensor<8xf32>
-// CHECK-NEXT:  return %2 : tensor<8xf32>
+// CHECK-NEXT:  return %3 : tensor<8xf32>
 func.func @calls_same_funcs_two_same_manual_axes_different_shardings_one_without_manual_axes(%arg0: tensor<8xf32>) -> tensor<8xf32> {
   %0 = sdy.manual_computation(%arg0) in_shardings=[<@mesh, [{"x", "y"}]>] out_shardings=[<@mesh, [{"x", "y"}]>] manual_axes={"x"} (%arg1: tensor<4xf32>) {
     %3 = func.call @foo(%arg1) {sdy.sharding = #sdy.sharding_per_value<[<@mesh, [{"y"}]>]>} : (tensor<4xf32>) -> tensor<4xf32>
@@ -1108,7 +1117,8 @@ sdy.mesh @mesh = <["x"=2, "y"=2]>
 func.func @multiple_same_calls_different_shardings_different_number_of_call_sites_without_original_func_names(%arg0: tensor<8x2xi32> {sdy.sharding = #sdy.sharding<@mesh, [{}, {"y"}]>}) -> tensor<8x2xi32> {
   // CHECK-NEXT: %[[CALL0:.*]] = call @baz(%arg0) {sdy.sharding = #sdy.sharding_per_value<[<@mesh, [{"x"}, {}]>]>}
   // CHECK-NEXT: %[[CALL1:.*]] = call @baz(%arg0) {sdy.sharding = #sdy.sharding_per_value<[<@mesh, [{"x"}, {"y"}]>]>}
-  // CHECK-NEXT: %[[CALL2:.*]] = call @baz(%[[CALL0]]) {sdy.sharding = #sdy.sharding_per_value<[<@mesh, [{"x"}, {"y"}]>]>}
+  // CHECK-NEXT: %[[COPY1:.*]] = sdy.reshard %[[CALL0]] <@mesh, [{}, {"y"}]> : tensor<8x2xi32>
+  // CHECK-NEXT: %[[CALL2:.*]] = call @baz(%[[COPY1]]) {sdy.sharding = #sdy.sharding_per_value<[<@mesh, [{"x"}, {"y"}]>]>}
   // CHECK-NEXT: return %[[CALL2]] : tensor<8x2xi32>
   %0 = call @baz(%arg0) {sdy.sharding = #sdy.sharding_per_value<[<@mesh, [{"x"}, {}]>]>} : (tensor<8x2xi32>) -> tensor<8x2xi32>
   %1 = call @baz(%arg0) {sdy.sharding = #sdy.sharding_per_value<[<@mesh, [{"x"}, {"y"}]>]>} : (tensor<8x2xi32>) -> tensor<8x2xi32>
@@ -1176,16 +1186,18 @@ func.func private @baz_0(%arg0: tensor<8x2xi32> {sdy.sharding = #sdy.sharding<@m
 sdy.mesh @mesh = <["x"=2, "y"=2]>
 // CHECK-LABEL: func @calls_same_funcs_two_same_manual_axes_different_shardings_one_without_manual_axes_without_original_func_names(
 // CHECK-NEXT:  %0 = sdy.manual_computation(%arg0) in_shardings=[<@mesh, [{"x", "y"}]>] out_shardings=[<@mesh, [{"x", "y"}]>] manual_axes={"x"} (%arg1: tensor<4xf32>) {
-// CHECK-NEXT:    %3 = func.call @foo(%arg1) {sdy.sharding = #sdy.sharding_per_value<[<@mesh, [{"y"}]>]>} : (tensor<4xf32>) -> tensor<4xf32>
-// CHECK-NEXT:    %4 = func.call @foo_0(%3) {sdy.sharding = #sdy.sharding_per_value<[<@mesh, [{}]>]>} : (tensor<4xf32>) -> tensor<4xf32>
-// CHECK-NEXT:    sdy.return %4 : tensor<4xf32>
+// CHECK-NEXT:    %4 = func.call @foo(%arg1) {sdy.sharding = #sdy.sharding_per_value<[<@mesh, [{"y"}]>]>} : (tensor<4xf32>) -> tensor<4xf32>
+// CHECK-NEXT:    %5 = sdy.reshard %4 <@mesh, [{}]> : tensor<4xf32>
+// CHECK-NEXT:    %6 = func.call @foo_0(%5) {sdy.sharding = #sdy.sharding_per_value<[<@mesh, [{}]>]>} : (tensor<4xf32>) -> tensor<4xf32>
+// CHECK-NEXT:    sdy.return %6 : tensor<4xf32>
 // CHECK-NEXT:  } : (tensor<8xf32>) -> tensor<8xf32>
-// CHECK-NEXT:  %1 = call @bar(%0) {sdy.sharding = #sdy.sharding_per_value<[<@mesh, [{"y"}]>]>} : (tensor<8xf32>) -> tensor<8xf32>
-// CHECK-NEXT:  %2 = sdy.manual_computation(%1) in_shardings=[<@mesh, [{"x", "y"}]>] out_shardings=[<@mesh, [{"x", "y"}]>] manual_axes={"x"} (%arg1: tensor<4xf32>) {
-// CHECK-NEXT:    %3 = func.call @foo_1(%arg1) {sdy.sharding = #sdy.sharding_per_value<[<@mesh, [{"y"}]>]>} : (tensor<4xf32>) -> tensor<4xf32>
-// CHECK-NEXT:    sdy.return %3 : tensor<4xf32>
+// CHECK-NEXT:  %1 = sdy.reshard %0 <@mesh, [{"y"}]> : tensor<8xf32>
+// CHECK-NEXT:  %2 = call @bar(%1) {sdy.sharding = #sdy.sharding_per_value<[<@mesh, [{"y"}]>]>} : (tensor<8xf32>) -> tensor<8xf32>
+// CHECK-NEXT:  %3 = sdy.manual_computation(%2) in_shardings=[<@mesh, [{"x", "y"}]>] out_shardings=[<@mesh, [{"x", "y"}]>] manual_axes={"x"} (%arg1: tensor<4xf32>) {
+// CHECK-NEXT:    %4 = func.call @foo_1(%arg1) {sdy.sharding = #sdy.sharding_per_value<[<@mesh, [{"y"}]>]>} : (tensor<4xf32>) -> tensor<4xf32>
+// CHECK-NEXT:    sdy.return %4 : tensor<4xf32>
 // CHECK-NEXT:  } : (tensor<8xf32>) -> tensor<8xf32>
-// CHECK-NEXT:  return %2 : tensor<8xf32>
+// CHECK-NEXT:  return %3 : tensor<8xf32>
 func.func @calls_same_funcs_two_same_manual_axes_different_shardings_one_without_manual_axes_without_original_func_names(%arg0: tensor<8xf32>) -> tensor<8xf32> {
   %0 = sdy.manual_computation(%arg0) in_shardings=[<@mesh, [{"x", "y"}]>] out_shardings=[<@mesh, [{"x", "y"}]>] manual_axes={"x"} (%arg1: tensor<4xf32>) {
     %3 = func.call @foo(%arg1) {sdy.sharding = #sdy.sharding_per_value<[<@mesh, [{"y"}]>]>} : (tensor<4xf32>) -> tensor<4xf32>
@@ -1255,7 +1267,8 @@ sdy.mesh @mesh = <["x"=2, "y"=2]>
 
 // CHECK-LABEL: func @single_call_different_argument_and_func_input_sharding(
 func.func @single_call_different_argument_and_func_input_sharding(%arg0: tensor<8x2xi32> {sdy.sharding = #sdy.sharding<@mesh, [{}, {"x"}]>}) -> tensor<8x2xi32> {
-  // CHECK-NEXT: %[[CALL:.*]] = call @baz(%arg0) {sdy.sharding = #sdy.sharding_per_value<[<@mesh, [{"x"}, {}]>]>} : (tensor<8x2xi32>) -> tensor<8x2xi32>
+  // CHECK-NEXT: %[[COPY:.*]] = sdy.reshard %arg0 <@mesh, [{}, {"y"}]> : tensor<8x2xi32>
+  // CHECK-NEXT: %[[CALL:.*]] = call @baz(%[[COPY]]) {sdy.sharding = #sdy.sharding_per_value<[<@mesh, [{"x"}, {}]>]>} : (tensor<8x2xi32>) -> tensor<8x2xi32>
   // CHECK-NEXT: return %[[CALL]] : tensor<8x2xi32>
   %0 = call @baz(%arg0) {sdy.sharding = #sdy.sharding_per_value<[<@mesh, [{"x"}, {}]>]>} : (tensor<8x2xi32>) -> tensor<8x2xi32>
   return %0 : tensor<8x2xi32>
@@ -1272,7 +1285,8 @@ sdy.mesh @mesh = <["x"=2, "y"=2]>
 
 // CHECK-LABEL: func @single_call_no_func_input_sharding(
 func.func @single_call_no_func_input_sharding(%arg0: tensor<8x2xi32> {sdy.sharding = #sdy.sharding<@mesh, [{}, {"y"}]>}) -> tensor<8x2xi32> {
-  // CHECK-NEXT: %[[CALL:.*]] = call @baz(%arg0) {sdy.sharding = #sdy.sharding_per_value<[<@mesh, [{"x"}, {}]>]>} : (tensor<8x2xi32>) -> tensor<8x2xi32>
+  // CHECK-NEXT: %[[COPY:.*]] = sdy.reshard %arg0 <@mesh, [{}, {}]> : tensor<8x2xi32>
+  // CHECK-NEXT: %[[CALL:.*]] = call @baz(%[[COPY]]) {sdy.sharding = #sdy.sharding_per_value<[<@mesh, [{"x"}, {}]>]>} : (tensor<8x2xi32>) -> tensor<8x2xi32>
   // CHECK-NEXT: return %[[CALL]] : tensor<8x2xi32>
   %0 = call @baz(%arg0) {sdy.sharding = #sdy.sharding_per_value<[<@mesh, [{"x"}, {}]>]>} : (tensor<8x2xi32>) -> tensor<8x2xi32>
   return %0 : tensor<8x2xi32>
@@ -1289,7 +1303,8 @@ sdy.mesh @mesh = <["x"=2, "y"=2]>
 
 // CHECK-LABEL: func @single_call_different_argument_and_func_input_sharding_argument_reused(
 func.func @single_call_different_argument_and_func_input_sharding_argument_reused(%arg0: tensor<8x2xi32> {sdy.sharding = #sdy.sharding<@mesh, [{}, {"x"}]>}) -> tensor<8x2xi32> {
-  // CHECK-NEXT: %[[CALL:.*]] = call @baz(%arg0) {sdy.sharding = #sdy.sharding_per_value<[<@mesh, [{"x"}, {}]>]>} : (tensor<8x2xi32>) -> tensor<8x2xi32>
+  // CHECK-NEXT: %[[COPY:.*]] = sdy.reshard %arg0 <@mesh, [{}, {"y"}]> : tensor<8x2xi32>
+  // CHECK-NEXT: %[[CALL:.*]] = call @baz(%[[COPY]]) {sdy.sharding = #sdy.sharding_per_value<[<@mesh, [{"x"}, {}]>]>} : (tensor<8x2xi32>) -> tensor<8x2xi32>
   // CHECK-NEXT: %[[ADD:.*]] = stablehlo.add %[[CALL]], %arg0 : tensor<8x2xi32>
   // CHECK-NEXT: return %[[ADD]] : tensor<8x2xi32>
   %0 = call @baz(%arg0) {sdy.sharding = #sdy.sharding_per_value<[<@mesh, [{"x"}, {}]>]>} : (tensor<8x2xi32>) -> tensor<8x2xi32>
diff --git a/shardy/dialect/sdy/transforms/export/unflatten_call_graph.cc b/shardy/dialect/sdy/transforms/export/unflatten_call_graph.cc
index cfe8428..6e9dddd 100644
--- a/shardy/dialect/sdy/transforms/export/unflatten_call_graph.cc
+++ b/shardy/dialect/sdy/transforms/export/unflatten_call_graph.cc
@@ -139,6 +139,7 @@ struct UnflattenCallGraphPass
           callOp, symbolTable, /*ignoreShardings=*/dedupFunctionsFully);
       FuncOp funcOp = funcCache[funcCacheKey];
       callOp.setCallee(funcOp.getName());
+      insertReshardsOnFuncArguments(funcOp, callOp, symbolTable, rewriter);
     });
 
     moduleOp.walk([&](FuncOp funcOp) {
diff --git a/shardy/dialect/sdy/transforms/import/add_func_data_flow_edges.cc b/shardy/dialect/sdy/transforms/import/add_func_data_flow_edges.cc
index 7768fb4..702545f 100644
--- a/shardy/dialect/sdy/transforms/import/add_func_data_flow_edges.cc
+++ b/shardy/dialect/sdy/transforms/import/add_func_data_flow_edges.cc
@@ -49,10 +49,6 @@ void addFuncDataFlowEdgeOps(ModuleOp moduleOp, const SymbolTable& symbolTable,
     mlir::Block& entryBlock = funcOp.getBody().front();
     rewriter.setInsertionPointToStart(&entryBlock);
     for (Value argument : funcOp.getArguments()) {
-      if (!isStaticShapedType(argument.getType())) {
-        // Skip non-static-shaped types, e.g., tokens.
-        continue;
-      }
       auto edgeOp =
           FuncDataFlowEdgeOp::create(rewriter, funcOp.getLoc(), argument);
       rewriter.replaceAllUsesExcept(argument, edgeOp, edgeOp);
@@ -65,10 +61,6 @@ void addFuncDataFlowEdgeOps(ModuleOp moduleOp, const SymbolTable& symbolTable,
   moduleOp.walk([&](CallOp callOp) {
     rewriter.setInsertionPointAfter(callOp);
     for (Value result : callOp.getResults()) {
-      if (!isStaticShapedType(result.getType())) {
-        // Skip non-static-shaped types, e.g., tokens.
-        continue;
-      }
       auto edgeOp =
           FuncDataFlowEdgeOp::create(rewriter, callOp.getLoc(), result);
       rewriter.replaceAllUsesExcept(result, edgeOp, edgeOp);
diff --git a/shardy/dialect/sdy/transforms/import/import_pipeline.cc b/shardy/dialect/sdy/transforms/import/import_pipeline.cc
index 7a4b3c2..61d515e 100644
--- a/shardy/dialect/sdy/transforms/import/import_pipeline.cc
+++ b/shardy/dialect/sdy/transforms/import/import_pipeline.cc
@@ -43,6 +43,9 @@ void addImportPipeline(OpPassManager& pm, int& dumpIndex,
       options.dumpDirectory, "before_propagation", dumpIndex++));
 
   pm.addPass(createAddDataFlowEdgesPass());
+  if (options.enableNativeNonFlatSupport) {
+    pm.addPass(createAddFuncDataFlowEdgesPass());
+  }
   pm.addPass(
       createApplyShardingConstraintsPass(ApplyShardingConstraintsPassOptions{
           options.debugShardingOrigins, options.debugPropagationEdgeSharding}));
@@ -50,15 +53,9 @@ void addImportPipeline(OpPassManager& pm, int& dumpIndex,
   // constraints. This ensures we can detect sharding conflicts between group
   // members which have pre-propagation shardings due to sharding constraints.
   pm.addPass(createShardingGroupImportPass());
-  if (options.enableNativeNonFlatSupport) {
-    pm.addPass(createAddFuncDataFlowEdgesPass());
-  }
   pm.addPass(createFlattenCallGraphPass());
   // Keep SymbolDCE after FlattenCallGraph.
   pm.addPass(createSymbolDCEPass());
-  if (options.enableNativeNonFlatSupport) {
-    pm.addPass(createAddFuncDataFlowEdgesPass());
-  }
 }
 
 void addImportPipeline(OpPassManager& pm, const PropagationOptions& options) {
diff --git a/shardy/dialect/sdy/transforms/import/test/add_func_data_flow_edges.mlir b/shardy/dialect/sdy/transforms/import/test/add_func_data_flow_edges.mlir
index 24e6986..00bf65e 100644
--- a/shardy/dialect/sdy/transforms/import/test/add_func_data_flow_edges.mlir
+++ b/shardy/dialect/sdy/transforms/import/test/add_func_data_flow_edges.mlir
@@ -418,54 +418,3 @@ func.func @main(%arg0: tensor<8xf32>) -> tensor<8xf32> {
   return %0 : tensor<8xf32>
 }
 
-// -----
-
-// test: token_typed_func_argument_skipped
-// Tokens are not static-shaped types, so no func_data_flow_edge should be
-// created for them. Only the tensor argument gets an edge op.
-// CHECK-LABEL: @bar(%arg0: !stablehlo.token, %arg1: tensor<8xf32>)
-func.func @bar(%arg0: !stablehlo.token, %arg1: tensor<8xf32>) -> tensor<8xf32> {
-  // CHECK-NEXT: %[[EDGE:.*]] = sdy.func_data_flow_edge %arg1
-  // CHECK-NEXT:                stablehlo.negate %[[EDGE]]
-  // CHECK-NOT:  sdy.func_data_flow_edge %arg0
-  %0 = stablehlo.negate %arg1 : tensor<8xf32>
-  return %0 : tensor<8xf32>
-}
-
-// CHECK-LABEL: @main
-func.func @main(%arg0: !stablehlo.token, %arg1: tensor<8xf32>) -> tensor<8xf32> {
-  // CHECK-NEXT: %[[CALL:.*]] = call @bar(%arg0, %arg1)
-  // CHECK-NEXT: %[[EDGE:.*]] = sdy.func_data_flow_edge %[[CALL]]
-  // CHECK-NEXT: stablehlo.abs %[[EDGE]]
-  %0 = call @bar(%arg0, %arg1) : (!stablehlo.token, tensor<8xf32>) -> (tensor<8xf32>)
-  %1 = stablehlo.abs %0 : tensor<8xf32>
-  return %1 : tensor<8xf32>
-}
-
-// -----
-
-// test: token_typed_call_result_skipped
-// Tokens are not static-shaped types, so no func_data_flow_edge should be
-// created for them. Only the tensor result gets an edge op.
-// CHECK-LABEL: @bar(%arg0: tensor<8xf32>)
-func.func @bar(%arg0: tensor<8xf32>) -> (!stablehlo.token, tensor<8xf32>) {
-  // CHECK-NEXT: %[[EDGE:.*]] = sdy.func_data_flow_edge %arg0
-  // CHECK-NEXT: %[[TOK:.*]] = stablehlo.create_token
-  // CHECK-NEXT: %[[NEG:.*]] = stablehlo.negate %[[EDGE]]
-  %tok = stablehlo.create_token : !stablehlo.token
-  %0 = stablehlo.negate %arg0 : tensor<8xf32>
-  return %tok, %0 : !stablehlo.token, tensor<8xf32>
-}
-
-// CHECK-LABEL: @main
-func.func @main(%arg0: tensor<8xf32>) -> tensor<8xf32> {
-  // CHECK-NEXT: %[[CALL:.*]]:2 = call @bar(%arg0)
-  // CHECK-NEXT: %[[EDGE:.*]] = sdy.func_data_flow_edge %[[CALL]]#1
-  // CHECK-NOT:  sdy.func_data_flow_edge %[[CALL]]#0
-  // CHECK-NEXT: stablehlo.abs %[[EDGE]]
-  %0:2 = call @bar(%arg0) : (tensor<8xf32>) -> (!stablehlo.token, tensor<8xf32>)
-  %1 = stablehlo.abs %0#1 : tensor<8xf32>
-  return %1 : tensor<8xf32>
-}
-
-
diff --git a/shardy/dialect/sdy/transforms/import/test/flatten_call_graph.mlir b/shardy/dialect/sdy/transforms/import/test/flatten_call_graph.mlir
index 9b470e9..fa9c856 100644
--- a/shardy/dialect/sdy/transforms/import/test/flatten_call_graph.mlir
+++ b/shardy/dialect/sdy/transforms/import/test/flatten_call_graph.mlir
@@ -1,47 +1,60 @@
 // RUN: sdy_opt %s -split-input-file -sdy-flatten-call-graph | FileCheck %s
 
 // CHECK-LABEL: func @singleton(%arg0: tensor<8xi32>) -> tensor<8xi32> {
+// CHECK-NEXT:    sdy.func_data_flow_edge
 // CHECK-NEXT:    return
 func.func @singleton(%arg0: tensor<8xi32>) -> tensor<8xi32> {
-  return %arg0 : tensor<8xi32>
+  %0 = sdy.func_data_flow_edge %arg0 : tensor<8xi32>
+  return %0 : tensor<8xi32>
 }
 
 // -----
 
 // CHECK-LABEL: func @simple_call_graph(%arg0: tensor<8xi32>) -> tensor<8xi32> {
 // CHECK-NEXT:    call @foo(
+// CHECK-NEXT:    sdy.func_data_flow_edge
 // CHECK-NEXT:    return
 func.func @simple_call_graph(%arg0: tensor<8xi32>) -> tensor<8xi32> {
   %0 = call @foo(%arg0) : (tensor<8xi32>) -> tensor<8xi32>
-  return %0 : tensor<8xi32>
+  %1 = sdy.func_data_flow_edge %0 : tensor<8xi32>
+  return %1 : tensor<8xi32>
 }
 
 // CHECK-LABEL: func private @foo(%arg0: tensor<8xi32>) -> tensor<8xi32> {
+// CHECK-NEXT:    sdy.func_data_flow_edge
 // CHECK-NEXT:    return
 func.func private @foo(%arg0: tensor<8xi32>) -> tensor<8xi32> {
-  return %arg0 : tensor<8xi32>
+  %0 = sdy.func_data_flow_edge %arg0 : tensor<8xi32>
+  return %0 : tensor<8xi32>
 }
 
 // -----
 
 // CHECK-LABEL: func @main_calls_foo_twice(%arg0: tensor<8xi32>) -> (tensor<8xi32>, tensor<8xi32>) {
 // CHECK-NEXT:    call @foo(
+// CHECK-NEXT:    sdy.func_data_flow_edge
 // CHECK-NEXT:    call @foo_0(
+// CHECK-NEXT:    sdy.func_data_flow_edge
 // CHECK-NEXT:    return
 func.func @main_calls_foo_twice(%arg0: tensor<8xi32>) -> (tensor<8xi32>, tensor<8xi32>) {
   %0 = call @foo(%arg0) : (tensor<8xi32>) -> tensor<8xi32>
+  %edge1 = sdy.func_data_flow_edge %0 : tensor<8xi32>
   %1 = call @foo(%arg0) : (tensor<8xi32>) -> tensor<8xi32>
-  return %0, %1 : tensor<8xi32>, tensor<8xi32>
+  %edge2 = sdy.func_data_flow_edge %1 : tensor<8xi32>
+  return %edge1, %edge2 : tensor<8xi32>, tensor<8xi32>
 }
 
 // CHECK-LABEL: func private @foo(%arg0: tensor<8xi32>) -> tensor<8xi32> {
+// CHECK-NEXT:    sdy.func_data_flow_edge
 // CHECK-NEXT:    return
 func.func private @foo(%arg0: tensor<8xi32>) -> tensor<8xi32> {
-  return %arg0 : tensor<8xi32>
+  %0 = sdy.func_data_flow_edge %arg0 : tensor<8xi32>
+  return %0 : tensor<8xi32>
 }
 
 // CHECK-LABEL: func private @foo_0(%arg0: tensor<8xi32>) -> tensor<8xi32>
 // CHECK-SAME:  attributes {sdy.original_func_name = "foo"} {
+// CHECK-NEXT:    sdy.func_data_flow_edge
 // CHECK-NEXT:    return
 
 
@@ -49,232 +62,318 @@ func.func private @foo(%arg0: tensor<8xi32>) -> tensor<8xi32> {
 
 // CHECK-LABEL: func @main_calls_foo_calls_bar(%arg0: tensor<8xi32>) -> tensor<8xi32> {
 // CHECK-NEXT:    call @foo(
+// CHECK-NEXT:    sdy.func_data_flow_edge
 // CHECK-NEXT:    return
 func.func @main_calls_foo_calls_bar(%arg0: tensor<8xi32>) -> tensor<8xi32> {
   %0 = call @foo(%arg0) : (tensor<8xi32>) -> tensor<8xi32>
-  return %0 : tensor<8xi32>
+  %1 = sdy.func_data_flow_edge %0 : tensor<8xi32>
+  return %1 : tensor<8xi32>
 }
 
 // CHECK-LABEL: func private @foo(%arg0: tensor<8xi32>) -> tensor<8xi32> {
+// CHECK-NEXT:    sdy.func_data_flow_edge
 // CHECK-NEXT:    call @bar(
+// CHECK-NEXT:    sdy.func_data_flow_edge
 // CHECK-NEXT:    return
 func.func private @foo(%arg0: tensor<8xi32>) -> tensor<8xi32> {
-  %1 = call @bar(%arg0) : (tensor<8xi32>) -> tensor<8xi32>
-  return %1 : tensor<8xi32>
+  %0 = sdy.func_data_flow_edge %arg0 : tensor<8xi32>
+  %1 = call @bar(%0) : (tensor<8xi32>) -> tensor<8xi32>
+  %2 = sdy.func_data_flow_edge %1 : tensor<8xi32>
+  return %2 : tensor<8xi32>
 }
 
 // CHECK-LABEL: func private @bar(%arg0: tensor<8xi32>) -> tensor<8xi32> {
+// CHECK-NEXT:    sdy.func_data_flow_edge
 // CHECK-NEXT:    return
 func.func private @bar(%arg0: tensor<8xi32>) -> tensor<8xi32> {
-  return %arg0 : tensor<8xi32>
+  %0 = sdy.func_data_flow_edge %arg0 : tensor<8xi32>
+  return %0 : tensor<8xi32>
 }
 
 // -----
 
 // CHECK-LABEL: func @main_calls_foo_calls_bar_twice(%arg0: tensor<8xi32>) -> tensor<8xi32> {
 // CHECK-NEXT:    call @foo(
+// CHECK-NEXT:    sdy.func_data_flow_edge
 // CHECK-NEXT:    return
 func.func @main_calls_foo_calls_bar_twice(%arg0: tensor<8xi32>) -> tensor<8xi32> {
   %0 = call @foo(%arg0) : (tensor<8xi32>) -> tensor<8xi32>
-  return %0 : tensor<8xi32>
+  %1 = sdy.func_data_flow_edge %0 : tensor<8xi32>
+  return %1 : tensor<8xi32>
 }
 
 // CHECK-LABEL: func private @foo(%arg0: tensor<8xi32>) -> tensor<8xi32> {
+// CHECK-NEXT:    sdy.func_data_flow_edge
 // CHECK-NEXT:    call @bar(
+// CHECK-NEXT:    sdy.func_data_flow_edge
 // CHECK-NEXT:    call @bar_0(
+// CHECK-NEXT:    sdy.func_data_flow_edge
 // CHECK-NEXT:    stablehlo.add
 func.func private @foo(%arg0: tensor<8xi32>) -> tensor<8xi32> {
-  %1 = call @bar(%arg0) : (tensor<8xi32>) -> tensor<8xi32>
-  %2 = call @bar(%arg0) : (tensor<8xi32>) -> tensor<8xi32>
-  %3 = stablehlo.add %1, %2 : tensor<8xi32>
+  %0 = sdy.func_data_flow_edge %arg0 : tensor<8xi32>
+  %1 = call @bar(%0) : (tensor<8xi32>) -> tensor<8xi32>
+  %edge1 = sdy.func_data_flow_edge %1 : tensor<8xi32>
+  %2 = call @bar(%0) : (tensor<8xi32>) -> tensor<8xi32>
+  %edge2 = sdy.func_data_flow_edge %2 : tensor<8xi32>
+  %3 = stablehlo.add %edge1, %edge2 : tensor<8xi32>
   return %3 : tensor<8xi32>
 }
 
 // CHECK-LABEL: func private @bar(%arg0: tensor<8xi32>) -> tensor<8xi32> {
+// CHECK-NEXT:    sdy.func_data_flow_edge
 // CHECK-NEXT:    return
 func.func private @bar(%arg0: tensor<8xi32>) -> tensor<8xi32> {
-  return %arg0 : tensor<8xi32>
+  %0 = sdy.func_data_flow_edge %arg0 : tensor<8xi32>
+  return %0 : tensor<8xi32>
 }
 
 // CHECK-LABEL: func private @bar_0(%arg0: tensor<8xi32>) -> tensor<8xi32>
 // CHECK-SAME:  attributes {sdy.original_func_name = "bar"} {
+// CHECK-NEXT:    sdy.func_data_flow_edge
 // CHECK-NEXT:    return
 
 // -----
 
 // CHECK-LABEL: func @simple_non_flat(%arg0: tensor<8xi32>) -> (tensor<8xi32>, tensor<8xi32>) {
 // CHECK-NEXT:    call @foo(
+// CHECK-NEXT:    sdy.func_data_flow_edge
 // CHECK-NEXT:    call @bar_0(
+// CHECK-NEXT:    sdy.func_data_flow_edge
 // CHECK-NEXT:    return
 func.func @simple_non_flat(%arg0: tensor<8xi32>) -> (tensor<8xi32>, tensor<8xi32>) {
   %0 = call @foo(%arg0) : (tensor<8xi32>) -> tensor<8xi32>
+  %edge1 = sdy.func_data_flow_edge %0 : tensor<8xi32>
   %1 = call @bar(%arg0) : (tensor<8xi32>) -> tensor<8xi32>
-  return %0, %1 : tensor<8xi32>, tensor<8xi32>
+  %edge2 = sdy.func_data_flow_edge %1 : tensor<8xi32>
+  return %edge1, %edge2 : tensor<8xi32>, tensor<8xi32>
 }
 
 // CHECK-LABEL: func private @foo(%arg0: tensor<8xi32>) -> tensor<8xi32> {
+// CHECK-NEXT:    sdy.func_data_flow_edge
 // CHECK-NEXT:    call @bar(
+// CHECK-NEXT:    sdy.func_data_flow_edge
 // CHECK-NEXT:    return
 func.func private @foo(%arg0: tensor<8xi32>) -> tensor<8xi32> {
-  %1 = call @bar(%arg0) : (tensor<8xi32>) -> tensor<8xi32>
-  return %1 : tensor<8xi32>
+  %0 = sdy.func_data_flow_edge %arg0 : tensor<8xi32>
+  %1 = call @bar(%0) : (tensor<8xi32>) -> tensor<8xi32>
+  %edge = sdy.func_data_flow_edge %1 : tensor<8xi32>
+  return %edge : tensor<8xi32>
 }
 
 // CHECK-LABEL: func private @bar(%arg0: tensor<8xi32>) -> tensor<8xi32> {
+// CHECK-NEXT:    sdy.func_data_flow_edge
 // CHECK-NEXT:    return
 func.func private @bar(%arg0: tensor<8xi32>) -> tensor<8xi32> {
-  return %arg0 : tensor<8xi32>
+  %0 = sdy.func_data_flow_edge %arg0 : tensor<8xi32>
+  return %0 : tensor<8xi32>
 }
 
 // CHECK-LABEL: func private @bar_0(%arg0: tensor<8xi32>) -> tensor<8xi32>
 // CHECK-SAME:  attributes {sdy.original_func_name = "bar"} {
+// CHECK-NEXT:    sdy.func_data_flow_edge
 // CHECK-NEXT:    return
 
 // -----
 
 // CHECK-LABEL: func @main_calls_foo_twice_and_foo_calls_bar_twice(%arg0: tensor<8xi32>) -> (tensor<8xi32>, tensor<8xi32>) {
 // CHECK-NEXT:    call @foo(
+// CHECK-NEXT:    sdy.func_data_flow_edge
 // CHECK-NEXT:    call @foo_3(
+// CHECK-NEXT:    sdy.func_data_flow_edge
 // CHECK-NEXT:    return
 func.func @main_calls_foo_twice_and_foo_calls_bar_twice(%arg0: tensor<8xi32>) -> (tensor<8xi32>, tensor<8xi32>) {
   %0 = call @foo(%arg0) : (tensor<8xi32>) -> tensor<8xi32>
+  %edge1 = sdy.func_data_flow_edge %0 : tensor<8xi32>
   %1 = call @foo(%arg0) : (tensor<8xi32>) -> tensor<8xi32>
-  return %0, %1 : tensor<8xi32>, tensor<8xi32>
+  %edge2 = sdy.func_data_flow_edge %1 : tensor<8xi32>
+  return %edge1, %edge2 : tensor<8xi32>, tensor<8xi32>
 }
 
 // CHECK-LABEL: func private @foo(%arg0: tensor<8xi32>) -> tensor<8xi32> {
+// CHECK-NEXT:    sdy.func_data_flow_edge
 // CHECK-NEXT:    call @bar(
+// CHECK-NEXT:    sdy.func_data_flow_edge
 // CHECK-NEXT:    call @bar_0(
+// CHECK-NEXT:    sdy.func_data_flow_edge
 // CHECK-NEXT:    stablehlo.add
 func.func private @foo(%arg0: tensor<8xi32>) -> tensor<8xi32> {
-  %1 = call @bar(%arg0) : (tensor<8xi32>) -> tensor<8xi32>
-  %2 = call @bar(%arg0) : (tensor<8xi32>) -> tensor<8xi32>
-  %3 = stablehlo.add %1, %2 : tensor<8xi32>
+  %0 = sdy.func_data_flow_edge %arg0 : tensor<8xi32>
+  %1 = call @bar(%0) : (tensor<8xi32>) -> tensor<8xi32>
+  %edge1 = sdy.func_data_flow_edge %1 : tensor<8xi32>
+  %2 = call @bar(%0) : (tensor<8xi32>) -> tensor<8xi32>
+  %edge2 = sdy.func_data_flow_edge %2 : tensor<8xi32>
+  %3 = stablehlo.add %edge1, %edge2 : tensor<8xi32>
   return %3 : tensor<8xi32>
 }
 
 // CHECK-LABEL: func private @bar(%arg0: tensor<8xi32>) -> tensor<8xi32> {
+// CHECK-NEXT:    sdy.func_data_flow_edge
 // CHECK-NEXT:    return
 func.func private @bar(%arg0: tensor<8xi32>) -> tensor<8xi32> {
-  return %arg0 : tensor<8xi32>
+  %0 = sdy.func_data_flow_edge %arg0 : tensor<8xi32>
+  return %0 : tensor<8xi32>
 }
 
 // CHECK-LABEL: func private @bar_0(%arg0: tensor<8xi32>) -> tensor<8xi32>
 // CHECK-SAME:  attributes {sdy.original_func_name = "bar"} {
+// CHECK-NEXT:    sdy.func_data_flow_edge
 // CHECK-NEXT:    return
 
 // CHECK-LABEL: func private @bar_1(%arg0: tensor<8xi32>) -> tensor<8xi32>
 // CHECK-SAME:  attributes {sdy.original_func_name = "bar"} {
+// CHECK-NEXT:    sdy.func_data_flow_edge
 // CHECK-NEXT:    return
 
 // CHECK-LABEL: func private @bar_0_2(%arg0: tensor<8xi32>) -> tensor<8xi32>
 // CHECK-SAME:  attributes {sdy.original_func_name = "bar"} {
+// CHECK-NEXT:    sdy.func_data_flow_edge
 // CHECK-NEXT:    return
 
 // CHECK-LABEL: func private @foo_3(%arg0: tensor<8xi32>) -> tensor<8xi32>
 // CHECK-SAME:  attributes {sdy.original_func_name = "foo"} {
+// CHECK-NEXT:    sdy.func_data_flow_edge
 // CHECK-NEXT:    call @bar_1(
+// CHECK-NEXT:    sdy.func_data_flow_edge
 // CHECK-NEXT:    call @bar_0_2(
+// CHECK-NEXT:    sdy.func_data_flow_edge
 // CHECK-NEXT:    stablehlo.add
 
 // -----
 
 // CHECK-LABEL: func @main_calls_foo_twice_and_foo_calls_bar_once(%arg0: tensor<8xi32>) -> (tensor<8xi32>, tensor<8xi32>) {
 // CHECK-NEXT:    call @foo(
+// CHECK-NEXT:    sdy.func_data_flow_edge
 // CHECK-NEXT:    call @foo_1(
+// CHECK-NEXT:    sdy.func_data_flow_edge
 // CHECK-NEXT:    return
 func.func @main_calls_foo_twice_and_foo_calls_bar_once(%arg0: tensor<8xi32>) -> (tensor<8xi32>, tensor<8xi32>) {
   %0 = call @foo(%arg0) : (tensor<8xi32>) -> tensor<8xi32>
+  %edge1 = sdy.func_data_flow_edge %0 : tensor<8xi32>
   %1 = call @foo(%arg0) : (tensor<8xi32>) -> tensor<8xi32>
-  return %0, %1 : tensor<8xi32>, tensor<8xi32>
+  %edge2 = sdy.func_data_flow_edge %1 : tensor<8xi32>
+  return %edge1, %edge2 : tensor<8xi32>, tensor<8xi32>
 }
 
 // CHECK-LABEL: func private @foo(%arg0: tensor<8xi32>) -> tensor<8xi32> {
+// CHECK-NEXT:    sdy.func_data_flow_edge
 // CHECK-NEXT:    call @bar(
+// CHECK-NEXT:    sdy.func_data_flow_edge
 // CHECK-NEXT:    return
 func.func private @foo(%arg0: tensor<8xi32>) -> tensor<8xi32> {
-  %1 = call @bar(%arg0) : (tensor<8xi32>) -> tensor<8xi32>
-  return %1: tensor<8xi32>
+  %0 = sdy.func_data_flow_edge %arg0 : tensor<8xi32>
+  %1 = call @bar(%0) : (tensor<8xi32>) -> tensor<8xi32>
+  %edge = sdy.func_data_flow_edge %1 : tensor<8xi32>
+  return %edge: tensor<8xi32>
 }
 
 // CHECK-LABEL: func private @bar(%arg0: tensor<8xi32>) -> tensor<8xi32> {
+// CHECK-NEXT:    sdy.func_data_flow_edge
 // CHECK-NEXT:    return
 func.func private @bar(%arg0: tensor<8xi32>) -> tensor<8xi32> {
-  return %arg0 : tensor<8xi32>
+  %0 = sdy.func_data_flow_edge %arg0 : tensor<8xi32>
+  return %0 : tensor<8xi32>
 }
 
 // CHECK-LABEL: func private @bar_0(%arg0: tensor<8xi32>) -> tensor<8xi32>
 // CHECK-SAME:  attributes {sdy.original_func_name = "bar"} {
+// CHECK-NEXT:    sdy.func_data_flow_edge
 // CHECK-NEXT:    return
 
 // CHECK-LABEL: func private @foo_1(%arg0: tensor<8xi32>) -> tensor<8xi32>
 // CHECK-SAME:  attributes {sdy.original_func_name = "foo"} {
+// CHECK-NEXT:    sdy.func_data_flow_edge
 // CHECK-NEXT:    call @bar_0(
+// CHECK-NEXT:    sdy.func_data_flow_edge
 // CHECK-NEXT:    return
 
 // -----
 
 // CHECK-LABEL:func.func @complex_non_flat(%arg0: tensor<8xi32>) -> (tensor<8xi32>, tensor<8xi32>) {
-// CHECK-NEXT:   %[[CALL0:.*]] = call @foo(%arg0) : (tensor<8xi32>) -> tensor<8xi32>
-// CHECK-NEXT:   %[[CALL1:.*]] = call @bar_4(%arg0) : (tensor<8xi32>) -> tensor<8xi32>
-// CHECK-NEXT:   return %[[CALL0]], %[[CALL1]] : tensor<8xi32>, tensor<8xi32>
+// CHECK-NEXT:   %0 = call @foo(%arg0) : (tensor<8xi32>) -> tensor<8xi32>
+// CHECK-NEXT:   %1 = sdy.func_data_flow_edge %0 : tensor<8xi32>
+// CHECK-NEXT:   %2 = call @bar_4(%arg0) : (tensor<8xi32>) -> tensor<8xi32>
+// CHECK-NEXT:   %3 = sdy.func_data_flow_edge %2 : tensor<8xi32>
+// CHECK-NEXT:   return %1, %3 : tensor<8xi32>, tensor<8xi32>
 // CHECK-NEXT: }
 // CHECK-LABEL:func.func private @foo(%arg0: tensor<8xi32>) -> tensor<8xi32> {
-// CHECK-NEXT:   %[[CALL2:.*]] = call @bar(%arg0) : (tensor<8xi32>) -> tensor<8xi32>
-// CHECK-NEXT:   %[[CALL3:.*]] = call @bar_1(%arg0) : (tensor<8xi32>) -> tensor<8xi32>
-// CHECK-NEXT:   %[[ADD:.*]] = stablehlo.add %[[CALL2]], %[[CALL3]] : tensor<8xi32>
-// CHECK-NEXT:   %[[CALL4:.*]] = call @baz_2(%[[ADD]]) : (tensor<8xi32>) -> tensor<8xi32>
-// CHECK-NEXT:   return %[[CALL4]] : tensor<8xi32>
+// CHECK-NEXT:   %0 = sdy.func_data_flow_edge %arg0 : tensor<8xi32>
+// CHECK-NEXT:   %1 = call @bar(%0) : (tensor<8xi32>) -> tensor<8xi32>
+// CHECK-NEXT:   %2 = sdy.func_data_flow_edge %1 : tensor<8xi32>
+// CHECK-NEXT:   %3 = call @bar_1(%0) : (tensor<8xi32>) -> tensor<8xi32>
+// CHECK-NEXT:   %4 = sdy.func_data_flow_edge %3 : tensor<8xi32>
+// CHECK-NEXT:   %5 = stablehlo.add %2, %4 : tensor<8xi32>
+// CHECK-NEXT:   %6 = call @baz_2(%5) : (tensor<8xi32>) -> tensor<8xi32>
+// CHECK-NEXT:   %7 = sdy.func_data_flow_edge %6 : tensor<8xi32>
+// CHECK-NEXT:   return %7 : tensor<8xi32>
 // CHECK-NEXT: }
 // CHECK-LABEL:func.func private @bar(%arg0: tensor<8xi32>) -> tensor<8xi32> {
-// CHECK-NEXT:   %[[CALL5:.*]] = call @baz(%arg0) : (tensor<8xi32>) -> tensor<8xi32>
-// CHECK-NEXT:   return %[[CALL5]] : tensor<8xi32>
+// CHECK-NEXT:   %0 = sdy.func_data_flow_edge %arg0 : tensor<8xi32>
+// CHECK-NEXT:   %1 = call @baz(%0) : (tensor<8xi32>) -> tensor<8xi32>
+// CHECK-NEXT:   %2 = sdy.func_data_flow_edge %1 : tensor<8xi32>
+// CHECK-NEXT:   return %2 : tensor<8xi32>
 // CHECK-NEXT: }
 // CHECK-LABEL:func.func private @baz(%arg0: tensor<8xi32>) -> tensor<8xi32> {
-// CHECK-NEXT:   return %arg0 : tensor<8xi32>
+// CHECK-NEXT:   %0 = sdy.func_data_flow_edge %arg0 : tensor<8xi32>
+// CHECK-NEXT:   return %0 : tensor<8xi32>
 // CHECK-NEXT: }
 // CHECK-LABEL:func.func private @baz_0(%arg0: tensor<8xi32>) -> tensor<8xi32>
 // CHECK-SAME: attributes {sdy.original_func_name = "baz"} {
-// CHECK-NEXT:   return %arg0 : tensor<8xi32>
+// CHECK-NEXT:   %0 = sdy.func_data_flow_edge %arg0 : tensor<8xi32>
+// CHECK-NEXT:   return %0 : tensor<8xi32>
 // CHECK-NEXT: }
 // CHECK-LABEL:func.func private @bar_1(%arg0: tensor<8xi32>) -> tensor<8xi32>
 // CHECK-SAME: attributes {sdy.original_func_name = "bar"} {
-// CHECK-NEXT:   %[[CALL6:.*]] = call @baz_0(%arg0) : (tensor<8xi32>) -> tensor<8xi32>
-// CHECK-NEXT:   return %[[CALL6]] : tensor<8xi32>
+// CHECK-NEXT:   %0 = sdy.func_data_flow_edge %arg0 : tensor<8xi32>
+// CHECK-NEXT:   %1 = call @baz_0(%0) : (tensor<8xi32>) -> tensor<8xi32>
+// CHECK-NEXT:   %2 = sdy.func_data_flow_edge %1 : tensor<8xi32>
+// CHECK-NEXT:   return %2 : tensor<8xi32>
 // CHECK-NEXT: }
 // CHECK-LABEL:func.func private @baz_2(%arg0: tensor<8xi32>) -> tensor<8xi32>
 // CHECK-SAME: attributes {sdy.original_func_name = "baz"} {
-// CHECK-NEXT:   return %arg0 : tensor<8xi32>
+// CHECK-NEXT:   %0 = sdy.func_data_flow_edge %arg0 : tensor<8xi32>
+// CHECK-NEXT:   return %0 : tensor<8xi32>
 // CHECK-NEXT: }
 // CHECK-LABEL:func.func private @baz_3(%arg0: tensor<8xi32>) -> tensor<8xi32>
 // CHECK-SAME: attributes {sdy.original_func_name = "baz"} {
-// CHECK-NEXT:   return %arg0 : tensor<8xi32>
+// CHECK-NEXT:   %0 = sdy.func_data_flow_edge %arg0 : tensor<8xi32>
+// CHECK-NEXT:   return %0 : tensor<8xi32>
 // CHECK-NEXT: }
 // CHECK-LABEL:func.func private @bar_4(%arg0: tensor<8xi32>) -> tensor<8xi32>
 // CHECK-SAME: attributes {sdy.original_func_name = "bar"} {
-// CHECK-NEXT:   %[[CALL7:.*]] = call @baz_3(%arg0) : (tensor<8xi32>) -> tensor<8xi32>
-// CHECK-NEXT:   return %[[CALL7]] : tensor<8xi32>
+// CHECK-NEXT:   %0 = sdy.func_data_flow_edge %arg0 : tensor<8xi32>
+// CHECK-NEXT:   %1 = call @baz_3(%0) : (tensor<8xi32>) -> tensor<8xi32>
+// CHECK-NEXT:   %2 = sdy.func_data_flow_edge %1 : tensor<8xi32>
+// CHECK-NEXT:   return %2 : tensor<8xi32>
 // CHECK-NEXT: }
 func.func @complex_non_flat(%arg0: tensor<8xi32>) -> (tensor<8xi32>, tensor<8xi32>) {
   %0 = call @foo(%arg0) : (tensor<8xi32>) -> tensor<8xi32>
+  %edge1 = sdy.func_data_flow_edge %0 : tensor<8xi32>
   %1 = call @bar(%arg0) : (tensor<8xi32>) -> tensor<8xi32>
-  return %0, %1 : tensor<8xi32>, tensor<8xi32>
+  %edge2 = sdy.func_data_flow_edge %1 : tensor<8xi32>
+  return %edge1, %edge2 : tensor<8xi32>, tensor<8xi32>
 }
 func.func private @foo(%arg0: tensor<8xi32>) -> tensor<8xi32> {
-  %1 = call @bar(%arg0) : (tensor<8xi32>) -> tensor<8xi32>
-  %2 = call @bar(%arg0) : (tensor<8xi32>) -> tensor<8xi32>
-  %3 = stablehlo.add %1, %2 : tensor<8xi32>
+  %0 = sdy.func_data_flow_edge %arg0 : tensor<8xi32>
+  %1 = call @bar(%0) : (tensor<8xi32>) -> tensor<8xi32>
+  %edge1 = sdy.func_data_flow_edge %1 : tensor<8xi32>
+  %2 = call @bar(%0) : (tensor<8xi32>) -> tensor<8xi32>
+  %edge2 = sdy.func_data_flow_edge %2 : tensor<8xi32>
+  %3 = stablehlo.add %edge1, %edge2 : tensor<8xi32>
   %4 = call @baz(%3) : (tensor<8xi32>) -> tensor<8xi32>
-  return %4 : tensor<8xi32>
+  %edge3 = sdy.func_data_flow_edge %4 : tensor<8xi32>
+  return %edge3 : tensor<8xi32>
 }
 
 func.func private @bar(%arg0: tensor<8xi32>) -> tensor<8xi32> {
-  %1 = call @baz(%arg0) : (tensor<8xi32>) -> tensor<8xi32>
-  return %1: tensor<8xi32>
+  %0 = sdy.func_data_flow_edge %arg0 : tensor<8xi32>
+  %1 = call @baz(%0) : (tensor<8xi32>) -> tensor<8xi32>
+  %edge = sdy.func_data_flow_edge %1 : tensor<8xi32>
+  return %edge: tensor<8xi32>
 }
 
 func.func private @baz(%arg0: tensor<8xi32>) -> tensor<8xi32> {
-  return %arg0 : tensor<8xi32>
+  %0 = sdy.func_data_flow_edge %arg0 : tensor<8xi32>
+  return %0 : tensor<8xi32>
 }
 
 // -----
@@ -283,22 +382,29 @@ sdy.mesh @mesh = #sdy.mesh<["a"=2, "b"=2]>
 
 // CHECK-LABEL: func @simple_non_flat_sharding_on_func_arguments(%arg0: tensor<8xi32>) -> (tensor<8xi32>, tensor<8xi32>) {
 // CHECK-NEXT:    call @foo(%arg0)
+// CHECK-NEXT:    sdy.func_data_flow_edge
 // CHECK-NEXT:    call @foo_0(%arg0)
+// CHECK-NEXT:    sdy.func_data_flow_edge
 // CHECK-NEXT:    return
 func.func @simple_non_flat_sharding_on_func_arguments(%arg0: tensor<8xi32>) -> (tensor<8xi32>, tensor<8xi32>) {
   %0 = call @foo(%arg0) : (tensor<8xi32>) -> tensor<8xi32>
+  %edge1 = sdy.func_data_flow_edge %0 : tensor<8xi32>
   %1 = call @foo(%arg0) : (tensor<8xi32>) -> tensor<8xi32>
-  return %0, %1 : tensor<8xi32>, tensor<8xi32>
+  %edge2 = sdy.func_data_flow_edge %1 : tensor<8xi32>
+  return %edge1, %edge2 : tensor<8xi32>, tensor<8xi32>
 }
 
 // CHECK-LABEL: func private @foo(%arg0: tensor<8xi32> {sdy.sharding = #sdy.sharding<@mesh, [{"a"}]>}) -> tensor<8xi32> {
+// CHECK-NEXT:    sdy.func_data_flow_edge %arg0 {sdy.sharding = #sdy.sharding_per_value<[<@mesh, [{"a"}]>]>}
 // CHECK-NEXT:    return
 func.func private @foo(%arg0: tensor<8xi32> {sdy.sharding = #sdy.sharding<@mesh, [{"a"}]>}) -> tensor<8xi32> {
-  return %arg0 : tensor<8xi32>
+  %0 = sdy.func_data_flow_edge %arg0 {sdy.sharding = #sdy.sharding_per_value<[<@mesh, [{"a"}]>]>} : tensor<8xi32>
+  return %0 : tensor<8xi32>
 }
 
 // CHECK-LABEL: func private @foo_0(%arg0: tensor<8xi32> {sdy.sharding = #sdy.sharding<@mesh, [{"a"}]>}) -> tensor<8xi32>
 // CHECK-SAME:  attributes {sdy.original_func_name = "foo"} {
+// CHECK-NEXT:    sdy.func_data_flow_edge %arg0 {sdy.sharding = #sdy.sharding_per_value<[<@mesh, [{"a"}]>]>}
 // CHECK-NEXT:    return
 
 // -----
@@ -307,22 +413,29 @@ sdy.mesh @mesh = #sdy.mesh<["a"=2, "b"=2]>
 
 // CHECK-LABEL: func @simple_non_flat_sharding_on_func_results(%arg0: tensor<8xi32>) -> (tensor<8xi32>, tensor<8xi32>) {
 // CHECK-NEXT:    call @foo(%arg0)
+// CHECK-NEXT:    sdy.func_data_flow_edge
 // CHECK-NEXT:    call @foo_0(%arg0)
+// CHECK-NEXT:    sdy.func_data_flow_edge
 // CHECK-NEXT:    return
 func.func @simple_non_flat_sharding_on_func_results(%arg0: tensor<8xi32>) -> (tensor<8xi32>, tensor<8xi32>) {
   %0 = call @foo(%arg0) : (tensor<8xi32>) -> tensor<8xi32>
+  %edge1 = sdy.func_data_flow_edge %0 : tensor<8xi32>
   %1 = call @foo(%arg0) : (tensor<8xi32>) -> tensor<8xi32>
-  return %0, %1 : tensor<8xi32>, tensor<8xi32>
+  %edge2 = sdy.func_data_flow_edge %1 : tensor<8xi32>
+  return %edge1, %edge2 : tensor<8xi32>, tensor<8xi32>
 }
 
 // CHECK-LABEL: func private @foo(%arg0: tensor<8xi32>) -> (tensor<8xi32> {sdy.sharding = #sdy.sharding<@mesh, [{"a"}]>}) {
+// CHECK-NEXT:    sdy.func_data_flow_edge %arg0 {sdy.sharding = #sdy.sharding_per_value<[<@mesh, [{"a"}]>]>}
 // CHECK-NEXT:    return
 func.func private @foo(%arg0: tensor<8xi32>) -> (tensor<8xi32> {sdy.sharding = #sdy.sharding<@mesh, [{"a"}]>}) {
-  return %arg0 : tensor<8xi32>
+  %0 = sdy.func_data_flow_edge %arg0 {sdy.sharding = #sdy.sharding_per_value<[<@mesh, [{"a"}]>]>} : tensor<8xi32>
+  return %0 : tensor<8xi32>
 }
 
 // CHECK-LABEL: func private @foo_0(%arg0: tensor<8xi32>) -> (tensor<8xi32> {sdy.sharding = #sdy.sharding<@mesh, [{"a"}]>})
 // CHECK-SAME:  attributes {sdy.original_func_name = "foo"} {
+// CHECK-NEXT:    sdy.func_data_flow_edge %arg0 {sdy.sharding = #sdy.sharding_per_value<[<@mesh, [{"a"}]>]>}
 // CHECK-NEXT:    return
 
 // -----
@@ -331,22 +444,29 @@ sdy.mesh @mesh = #sdy.mesh<["a"=2, "b"=2]>
 
 // CHECK-LABEL: func @simple_non_flat_non_matching_sharding_on_func_results_and_second_call_results(%arg0: tensor<8xi32>) -> (tensor<8xi32>, tensor<8xi32>) {
 // CHECK-NEXT:    call @foo(%arg0) : (tensor<8xi32>) -> tensor<8xi32>
+// CHECK-NEXT:    sdy.func_data_flow_edge
 // CHECK-NEXT:    call @foo_0(%arg0) {sdy.sharding = #sdy.sharding_per_value<[<@mesh, [{"b"}]>]>} : (tensor<8xi32>) -> tensor<8xi32>
+// CHECK-NEXT:    sdy.func_data_flow_edge {{.*}} {sdy.sharding = #sdy.sharding_per_value<[<@mesh, [{"b"}]>]>}
 // CHECK-NEXT:    return
 func.func @simple_non_flat_non_matching_sharding_on_func_results_and_second_call_results(%arg0: tensor<8xi32>) -> (tensor<8xi32>, tensor<8xi32>) {
   %0 = call @foo(%arg0) : (tensor<8xi32>) -> tensor<8xi32>
+  %edge1 = sdy.func_data_flow_edge %0 : tensor<8xi32>
   %1 = call @foo(%arg0) {sdy.sharding = #sdy.sharding_per_value<[<@mesh, [{"b"}]>]>} : (tensor<8xi32>) -> tensor<8xi32>
-  return %0, %1 : tensor<8xi32>, tensor<8xi32>
+  %edge2 = sdy.func_data_flow_edge %1 {sdy.sharding = #sdy.sharding_per_value<[<@mesh, [{"b"}]>]>} : tensor<8xi32>
+  return %edge1, %edge2 : tensor<8xi32>, tensor<8xi32>
 }
 
 // CHECK-LABEL: func private @foo(%arg0: tensor<8xi32>) -> (tensor<8xi32> {sdy.sharding = #sdy.sharding<@mesh, [{"a"}]>}) {
+// CHECK-NEXT:    sdy.func_data_flow_edge %arg0 {sdy.sharding = #sdy.sharding_per_value<[<@mesh, [{"a"}]>]>}
 // CHECK-NEXT:    return
 func.func private @foo(%arg0: tensor<8xi32>) -> (tensor<8xi32> {sdy.sharding = #sdy.sharding<@mesh, [{"a"}]>}) {
-  return %arg0 : tensor<8xi32>
+  %0 = sdy.func_data_flow_edge %arg0 {sdy.sharding = #sdy.sharding_per_value<[<@mesh, [{"a"}]>]>} : tensor<8xi32>
+  return %0 : tensor<8xi32>
 }
 
 // CHECK-LABEL: func private @foo_0(%arg0: tensor<8xi32>) -> (tensor<8xi32> {sdy.sharding = #sdy.sharding<@mesh, [{"a"}]>})
 // CHECK-SAME:  attributes {sdy.original_func_name = "foo"} {
+// CHECK-NEXT:    sdy.func_data_flow_edge %arg0 {sdy.sharding = #sdy.sharding_per_value<[<@mesh, [{"a"}]>]>}
 // CHECK-NEXT:    return
 
 // -----
@@ -355,22 +475,29 @@ sdy.mesh @mesh = #sdy.mesh<["a"=2, "b"=2, "c"=2]>
 
 // CHECK-LABEL: func @simple_non_flat_non_matching_sharding_on_func_results_and_both_call_results(%arg0: tensor<8xi32>) -> (tensor<8xi32>, tensor<8xi32>) {
 // CHECK-NEXT:    call @foo(%arg0) {sdy.sharding = #sdy.sharding_per_value<[<@mesh, [{"b"}]>]>} : (tensor<8xi32>) -> tensor<8xi32>
+// CHECK-NEXT:    sdy.func_data_flow_edge
 // CHECK-NEXT:    call @foo_0(%arg0) {sdy.sharding = #sdy.sharding_per_value<[<@mesh, [{"c"}]>]>} : (tensor<8xi32>) -> tensor<8xi32>
+// CHECK-NEXT:    sdy.func_data_flow_edge
 // CHECK-NEXT:    return
 func.func @simple_non_flat_non_matching_sharding_on_func_results_and_both_call_results(%arg0: tensor<8xi32>) -> (tensor<8xi32>, tensor<8xi32>) {
   %0 = call @foo(%arg0) {sdy.sharding = #sdy.sharding_per_value<[<@mesh, [{"b"}]>]>} : (tensor<8xi32>) -> tensor<8xi32>
+  %edge1 = sdy.func_data_flow_edge %0 {sdy.sharding = #sdy.sharding_per_value<[<@mesh, [{"b"}]>]>} : tensor<8xi32>
   %1 = call @foo(%arg0) {sdy.sharding = #sdy.sharding_per_value<[<@mesh, [{"c"}]>]>} : (tensor<8xi32>) -> tensor<8xi32>
-  return %0, %1 : tensor<8xi32>, tensor<8xi32>
+  %edge2 = sdy.func_data_flow_edge %1 {sdy.sharding = #sdy.sharding_per_value<[<@mesh, [{"c"}]>]>} : tensor<8xi32>
+  return %edge1, %edge2 : tensor<8xi32>, tensor<8xi32>
 }
 
 // CHECK-LABEL: func private @foo(%arg0: tensor<8xi32>) -> (tensor<8xi32> {sdy.sharding = #sdy.sharding<@mesh, [{"a"}]>}) {
+// CHECK-NEXT:    sdy.func_data_flow_edge %arg0 {sdy.sharding = #sdy.sharding_per_value<[<@mesh, [{"a"}]>]>}
 // CHECK-NEXT:    return
 func.func private @foo(%arg0: tensor<8xi32>) -> (tensor<8xi32> {sdy.sharding = #sdy.sharding<@mesh, [{"a"}]>}) {
-  return %arg0 : tensor<8xi32>
+  %0 = sdy.func_data_flow_edge %arg0 {sdy.sharding = #sdy.sharding_per_value<[<@mesh, [{"a"}]>]>} : tensor<8xi32>
+  return %0 : tensor<8xi32>
 }
 
 // CHECK-LABEL: func private @foo_0(%arg0: tensor<8xi32>) -> (tensor<8xi32> {sdy.sharding = #sdy.sharding<@mesh, [{"a"}]>})
 // CHECK-SAME:  attributes {sdy.original_func_name = "foo"} {
+// CHECK-NEXT:    sdy.func_data_flow_edge %arg0 {sdy.sharding = #sdy.sharding_per_value<[<@mesh, [{"a"}]>]>}
 // CHECK-NEXT:    return
 
 // -----
@@ -379,37 +506,48 @@ sdy.mesh @mesh = <["a"=2]>
 
 // CHECK-LABEL: func @simple_non_flat_with_manual_computations(
 // CHECK-NEXT:    call @foo(
+// CHECK-NEXT:    sdy.func_data_flow_edge
 // CHECK-NEXT:    sdy.manual_computation
 // CHECK-NEXT:      stablehlo.concatenate
 // CHECK-NEXT:      func.call @bar_0
+// CHECK-NEXT:      sdy.func_data_flow_edge
 // CHECK-NEXT:      sdy.return
 // CHECK-NEXT:    }
 // CHECK-NEXT:    return
 func.func @simple_non_flat_with_manual_computations(%arg0: tensor<8xi32>) -> (tensor<8xi32>, tensor<8xi32>) {
   %0 = call @foo(%arg0) : (tensor<8xi32>) -> tensor<8xi32>
+  %edge1 = sdy.func_data_flow_edge %0 : tensor<8xi32>
   %1 = sdy.manual_computation(%arg0) in_shardings=[<@mesh, [{"a"}]>] out_shardings=[<@mesh, [{"a"}]>] manual_axes={"a"} (%arg2: tensor<4xi32>) {
     %2 = stablehlo.concatenate %arg2, %arg2, dim=0 : (tensor<4xi32>, tensor<4xi32>) -> tensor<8xi32>
     %3 = func.call @bar(%2) : (tensor<8xi32>) -> tensor<8xi32>
+    %edge3 = sdy.func_data_flow_edge %3 : tensor<8xi32>
     sdy.return %arg2 : tensor<4xi32>
   } : (tensor<8xi32>) -> tensor<8xi32>
-  return %0, %1 : tensor<8xi32>, tensor<8xi32>
+  return %edge1, %1 : tensor<8xi32>, tensor<8xi32>
 }
 
 // CHECK-LABEL: func private @foo(%arg0: tensor<8xi32>) -> tensor<8xi32> {
+// CHECK-NEXT:    sdy.func_data_flow_edge
 // CHECK-NEXT:    call @bar(
+// CHECK-NEXT:    sdy.func_data_flow_edge
 // CHECK-NEXT:    return
 func.func private @foo(%arg0: tensor<8xi32>) -> tensor<8xi32> {
-  %1 = call @bar(%arg0) : (tensor<8xi32>) -> tensor<8xi32>
-  return %1 : tensor<8xi32>
+  %0 = sdy.func_data_flow_edge %arg0 : tensor<8xi32>
+  %1 = call @bar(%0) : (tensor<8xi32>) -> tensor<8xi32>
+  %edge = sdy.func_data_flow_edge %1 : tensor<8xi32>
+  return %edge : tensor<8xi32>
 }
 
 // CHECK-LABEL: func private @bar(%arg0: tensor<8xi32>) -> tensor<8xi32> {
+// CHECK-NEXT:    sdy.func_data_flow_edge
 // CHECK-NEXT:    return
 func.func private @bar(%arg0: tensor<8xi32>) -> tensor<8xi32> {
-  return %arg0 : tensor<8xi32>
+  %0 = sdy.func_data_flow_edge %arg0 : tensor<8xi32>
+  return %0 : tensor<8xi32>
 }
 
 // CHECK-LABEL: func private @bar_0(%arg0: tensor<8xi32>) -> tensor<8xi32>
 // CHECK-SAME:  attributes {sdy.original_func_name = "bar"} {
+// CHECK-NEXT:    sdy.func_data_flow_edge
 // CHECK-NEXT:    return
 
diff --git a/shardy/dialect/sdy/transforms/propagation/basic_propagation.cc b/shardy/dialect/sdy/transforms/propagation/basic_propagation.cc
index 135a851..11776ae 100644
--- a/shardy/dialect/sdy/transforms/propagation/basic_propagation.cc
+++ b/shardy/dialect/sdy/transforms/propagation/basic_propagation.cc
@@ -497,15 +497,6 @@ class PropagateDataFlowEdgeOp : public OpRewritePattern<DataFlowEdgeOp> {
 
   LogicalResult matchAndRewrite(DataFlowEdgeOp dataFlowEdgeOp,
                                 PatternRewriter& rewriter) const override {
-    // Skip non-shaped types (e.g., tokens), as we cannot create a sharding
-    // rule for them.
-    auto shapedType = dynCastStaticShapedType(dataFlowEdgeOp.getType());
-    if (!shapedType) {
-      return rewriter.notifyMatchFailure(dataFlowEdgeOp, [](Diagnostic& diag) {
-        diag << "non-shaped type (e.g., token)";
-      });
-    }
-
     SmallVector<Value> sources = dataFlowEdgeOp.getSources();
     SmallVector<TensorShardingAttr> operandShardingRef = getShardings(sources);
     PropagationTensorParams operandsParams = PropagationTensorParams(
@@ -535,7 +526,8 @@ class PropagateDataFlowEdgeOp : public OpRewritePattern<DataFlowEdgeOp> {
         getDirectionToPropagate, dataFlowEdgeOp, std::placeholders::_1);
     return propagateTensorShardings(
         operandsParams, resultsParams,
-        createIdentityShardingRule(shapedType, sources.size()),
+        createIdentityShardingRule(cast<ShapedType>(dataFlowEdgeOp.getType()),
+                                   sources.size()),
         directionAlongFactor, factorPropagation,
         /*conservativePropagation=*/false, dataFlowEdgeOp, symbolTable,
         &rewriter, shardingGroupMap);
diff --git a/shardy/dialect/sdy/transforms/propagation/test/basic_propagation_token.mlir b/shardy/dialect/sdy/transforms/propagation/test/basic_propagation_token.mlir
deleted file mode 100644
index a259736..0000000
--- a/shardy/dialect/sdy/transforms/propagation/test/basic_propagation_token.mlir
+++ /dev/null
@@ -1,28 +0,0 @@
-// RUN: sdy_opt %s -split-input-file -sdy-add-data-flow-edges -sdy-basic-propagate -sdy-sink-data-flow-edges 2>&1 | FileCheck %s
-
-sdy.mesh @mesh_a_2_b_2 = <["a"=2, "b"=2]>
-
-// CHECK-LABEL: func @func_token_arg_skipped(
-// CHECK-SAME:      %arg0: !stablehlo.token) -> !stablehlo.token
-func.func @func_token_arg_skipped(%arg0: !stablehlo.token) -> !stablehlo.token {
-  // CHECK-NEXT: return %arg0 : !stablehlo.token
-  return %arg0 : !stablehlo.token
-}
-
-// -----
-sdy.mesh @mesh_a_2_b_2 = <["a"=2, "b"=2]>
-
-func.func private @callee(%arg0: !stablehlo.token, %arg1: tensor<4xi64>) -> (!stablehlo.token, tensor<4xi64>) {
-  return %arg0, %arg1 : !stablehlo.token, tensor<4xi64>
-}
-
-// CHECK-LABEL: func @main(
-// CHECK-SAME:      %arg0: !stablehlo.token,
-// CHECK-SAME:      %arg1: tensor<4xi64> {sdy.sharding = #sdy.sharding<@mesh_a_2_b_2, [{"a"}]>})
-func.func @main(%arg0: !stablehlo.token, %arg1: tensor<4xi64> {sdy.sharding = #sdy.sharding<@mesh_a_2_b_2, [{"a"}]>}) -> (!stablehlo.token, tensor<4xi64>) {
-  %0:2 = call @callee(%arg0, %arg1) : (!stablehlo.token, tensor<4xi64>) -> (!stablehlo.token, tensor<4xi64>)
-  // Add a use that expects sharding to verify propagation
-  %1 = sdy.sharding_constraint %0#1 <@mesh_a_2_b_2, [{"a"}]> : tensor<4xi64>
-  // CHECK: return %0#0, %1 : !stablehlo.token, tensor<4xi64>
-  return %0#0, %1 : !stablehlo.token, tensor<4xi64>
-}
diff --git a/third_party/llvm/generated.patch b/third_party/llvm/generated.patch
index 509398d..e61b277 100644
--- a/third_party/llvm/generated.patch
+++ b/third_party/llvm/generated.patch
@@ -1 +1,13 @@
 Auto generated patch. Do not edit or delete it, even if empty.
+diff -ruN --strip-trailing-cr a/compiler-rt/test/cfi/icall/bad-signature.c b/compiler-rt/test/cfi/icall/bad-signature.c
+--- a/compiler-rt/test/cfi/icall/bad-signature.c
++++ b/compiler-rt/test/cfi/icall/bad-signature.c
+@@ -17,7 +17,7 @@
+   fprintf(stderr, "1\n");
+ 
+   // CFI-DIAG: runtime error: control flow integrity check for type 'void (int)' failed during indirect function call
+-  // CFI-DIAG: bad-signature.c:[[@LINE-8]]: note: f defined here
++  // CFI-DIAG: bad-signature.c:[[@LINE-8]]{{(:[0-9]+)?}}: note: f defined here
+   ((void (*)(int))f)(42); // UB here
+ 
+   // CFI-NOT: 2
diff --git a/third_party/llvm/workspace.bzl b/third_party/llvm/workspace.bzl
index fa4f55d..dd3f1df 100644
--- a/third_party/llvm/workspace.bzl
+++ b/third_party/llvm/workspace.bzl
@@ -4,8 +4,8 @@ load("//third_party:repo.bzl", "tf_http_archive")
 
 def repo(name):
     """Imports LLVM."""
-    LLVM_COMMIT = "4d676e56f0ee819a20a021434a53060a43c33120"
-    LLVM_SHA256 = "a93e5dd2aa4606a565b8f60873b170cfad8589393a754d6c02719ea68330ab7b"
+    LLVM_COMMIT = "a7c97252ed18839e87796dffd3926086ab62e8fd"
+    LLVM_SHA256 = "49049408bdf9ae162b95b3eacfb8f9af226195e66636d0c9eff9a61d99be54c5"
 
     tf_http_archive(
         name = name,
